Log file created at: 2016/01/28 17:56:18
Running on machine: TENEYTOSHIBA
Log line format: [IWEF]mmdd hh:mm:ss.uuuuuu threadid file:line] msg
I0128 17:56:18.289863  9076 net.cpp:49] Initializing net from parameters: 
name: "cnnFlow"
input: "data"
input_dim: 1
input_dim: 3
input_dim: 256
input_dim: 256
state {
  phase: TEST
}
layer {
  name: "scale1-layer1"
  type: "Convolution"
  bottom: "data"
  top: "scale1-layer1"
  param {
    lr_mult: 0
    decay_mult: 0
  }
  convolution_param {
    num_output: 3
    bias_term: false
    pad: 4
    kernel_size: 16
    group: 3
    stride: 8
    weight_filler {
      type: "bilinear"
    }
  }
}
layer {
  name: "scale1-layer2"
  type: "Convolution"
  bottom: "scale1-layer1"
  top: "scale1-layer2"
  convolution_param {
    num_output: 3
    pad: 3
    stride: 1
    kernel_h: 7
    kernel_w: 7
  }
}
layer {
  name: "scale1-layer3"
  type: "Convolution"
  bottom: "scale1-layer2"
  top: "scale1-layer3"
  convolution_param {
    num_output: 24
    pad: 3
    stride: 1
    kernel_h: 7
    kernel_w: 7
  }
}
layer {
  name: "scale1-layer4"
  type: "Power"
  bottom: "scale1-layer3"
  top: "scale1-layer4"
  power_param {
    power: 2
    scale: 1
    shift: 0
  }
}
layer {
  name: "scale1-layer5"
  type: "Pooling"
  bottom: "scale1-layer4"
  top: "scale1-layer5"
  pooling_param {
    pool: MAX
    kernel_h: 4
    kernel_w: 4
    stride_h: 4
    stride_w: 4
    pad_h: 0
    pad_w: 0
  }
}
layer {
  name: "scale1-layer6-slicer"
  type: "Slice"
  bottom: "scale1-layer5"
  top: "scale1-layer6-slice1"
  top: "scale1-layer6-slice2"
  top: "scale1-layer6-slice3"
  top: "scale1-layer6-slice4"
  top: "scale1-layer6-slice5"
  top: "scale1-layer6-slice6"
  top: "scale1-layer6-slice7"
  top: "scale1-layer6-slice8"
  top: "scale1-layer6-slice9"
  top: "scale1-layer6-slice10"
  top: "scale1-layer6-slice11"
  top: "scale1-layer6-slice12"
  slice_param {
    slice_point: 2
    slice_point: 4
    slice_point: 6
    slice_point: 8
    slice_point: 10
    slice_point: 12
    slice_point: 14
    slice_point: 16
    slice_point: 18
    slice_point: 20
    slice_point: 22
    axis: 1
  }
}
layer {
  name: "scale1-layer6-slice1normalized"
  type: "LRN"
  bottom: "scale1-layer6-slice1"
  top: "scale1-layer6-slice1normalized"
  lrn_param {
    local_size: 3
    alpha: 1
    beta: 0.5
    norm_region: ACROSS_CHANNELS
    k: 0
    engine: CAFFE
  }
}
layer {
  name: "scale1-layer6-slice2normalized"
  type: "LRN"
  bottom: "scale1-layer6-slice2"
  top: "scale1-layer6-slice2normalized"
  lrn_param {
    local_size: 3
    alpha: 1
    beta: 0.5
    norm_region: ACROSS_CHANNELS
    k: 0
    engine: CAFFE
  }
}
layer {
  name: "scale1-layer6-slice3normalized"
  type: "LRN"
  bottom: "scale1-layer6-slice3"
  top: "scale1-layer6-slice3normalized"
  lrn_param {
    local_size: 3
    alpha: 1
    beta: 0.5
    norm_region: ACROSS_CHANNELS
    k: 0
    engine: CAFFE
  }
}
layer {
  name: "scale1-layer6-slice4normalized"
  type: "LRN"
  bottom: "scale1-layer6-slice4"
  top: "scale1-layer6-slice4normalized"
  lrn_param {
    local_size: 3
    alpha: 1
    beta: 0.5
    norm_region: ACROSS_CHANNELS
    k: 0
    engine: CAFFE
  }
}
layer {
  name: "scale1-layer6-slice5normalized"
  type: "LRN"
  bottom: "scale1-layer6-slice5"
  top: "scale1-layer6-slice5normalized"
  lrn_param {
    local_size: 3
    alpha: 1
    beta: 0.5
    norm_region: ACROSS_CHANNELS
    k: 0
    engine: CAFFE
  }
}
layer {
  name: "scale1-layer6-slice6normalized"
  type: "LRN"
  bottom: "scale1-layer6-slice6"
  top: "scale1-layer6-slice6normalized"
  lrn_param {
    local_size: 3
    alpha: 1
    beta: 0.5
    norm_region: ACROSS_CHANNELS
    k: 0
    engine: CAFFE
  }
}
layer {
  name: "scale1-layer6-slice7normalized"
  type: "LRN"
  bottom: "scale1-layer6-slice7"
  top: "scale1-layer6-slice7normalized"
  lrn_param {
    local_size: 3
    alpha: 1
    beta: 0.5
    norm_region: ACROSS_CHANNELS
    k: 0
    engine: CAFFE
  }
}
layer {
  name: "scale1-layer6-slice8normalized"
  type: "LRN"
  bottom: "scale1-layer6-slice8"
  top: "scale1-layer6-slice8normalized"
  lrn_param {
    local_size: 3
    alpha: 1
    beta: 0.5
    norm_region: ACROSS_CHANNELS
    k: 0
    engine: CAFFE
  }
}
layer {
  name: "scale1-layer6-slice9normalized"
  type: "LRN"
  bottom: "scale1-layer6-slice9"
  top: "scale1-layer6-slice9normalized"
  lrn_param {
    local_size: 3
    alpha: 1
    beta: 0.5
    norm_region: ACROSS_CHANNELS
    k: 0
    engine: CAFFE
  }
}
layer {
  name: "scale1-layer6-slice10normalized"
  type: "LRN"
  bottom: "scale1-layer6-slice10"
  top: "scale1-layer6-slice10normalized"
  lrn_param {
    local_size: 3
    alpha: 1
    beta: 0.5
    norm_region: ACROSS_CHANNELS
    k: 0
    engine: CAFFE
  }
}
layer {
  name: "scale1-layer6-slice11normalized"
  type: "LRN"
  bottom: "scale1-layer6-slice11"
  top: "scale1-layer6-slice11normalized"
  lrn_param {
    local_size: 3
    alpha: 1
    beta: 0.5
    norm_region: ACROSS_CHANNELS
    k: 0
    engine: CAFFE
  }
}
layer {
  name: "scale1-layer6-slice12normalized"
  type: "LRN"
  bottom: "scale1-layer6-slice12"
  top: "scale1-layer6-slice12normalized"
  lrn_param {
    local_size: 3
    alpha: 1
    beta: 0.5
    norm_region: ACROSS_CHANNELS
    k: 0
    engine: CAFFE
  }
}
layer {
  name: "scale1-layer6"
  type: "Concat"
  bottom: "scale1-layer6-slice1normalized"
  bottom: "scale1-layer6-slice2normalized"
  bottom: "scale1-layer6-slice3normalized"
  bottom: "scale1-layer6-slice4normalized"
  bottom: "scale1-layer6-slice5normalized"
  bottom: "scale1-layer6-slice6normalized"
  bottom: "scale1-layer6-slice7normalized"
  bottom: "scale1-layer6-slice8normalized"
  bottom: "scale1-layer6-slice9normalized"
  bottom: "scale1-layer6-slice10normalized"
  bottom: "scale1-layer6-slice11normalized"
  bottom: "scale1-layer6-slice12normalized"
  top: "scale1-layer6"
}
layer {
  name: "scale1-layer7"
  type: "Convolution"
  bottom: "scale1-layer6"
  top: "scale1-layer7"
  convolution_param {
    num_output: 24
    pad: 4
    stride: 1
    kernel_h: 9
    kernel_w: 9
  }
}
layer {
  name: "scale1-layer8"
  type: "Deconvolution"
  bottom: "scale1-layer7"
  top: "scale1-layer8"
  param {
    lr_mult: 0
    decay_mult: 0
  }
  convolution_param {
    num_output: 24
    bias_term: false
    pad: 4
    kernel_size: 16
    group: 24
    stride: 8
    weight_filler {
      type: "bilinear"
    }
  }
}
layer {
  name: "scale2-layer1"
  type: "Convolution"
  bottom: "data"
  top: "scale2-layer1"
  param {
    lr_mult: 0
    decay_mult: 0
  }
  convolution_param {
    num_output: 3
    bias_term: false
    pad: 2
    kernel_size: 8
    group: 3
    stride: 4
    weight_filler {
      type: "bilinear"
    }
  }
}
layer {
  name: "scale2-layer2"
  type: "Convolution"
  bottom: "scale2-layer1"
  top: "scale2-layer2"
  convolution_param {
    num_output: 3
    pad: 3
    stride: 1
    kernel_h: 7
    kernel_w: 7
  }
}
layer {
  name: "scale2-layer3"
  type: "Convolution"
  bottom: "scale2-layer2"
  top: "scale2-layer3"
  convolution_param {
    num_output: 24
    pad: 3
    stride: 1
    kernel_h: 7
    kernel_w: 7
  }
}
layer {
  name: "scale2-layer4"
  type: "Power"
  bottom: "scale2-layer3"
  top: "scale2-layer4"
  power_param {
    power: 2
    scale: 1
    shift: 0
  }
}
layer {
  name: "scale2-layer5"
  type: "Pooling"
  bottom: "scale2-layer4"
  top: "scale2-layer5"
  pooling_param {
    pool: MAX
    kernel_h: 4
    kernel_w: 4
    stride_h: 4
    stride_w: 4
    pad_h: 0
    pad_w: 0
  }
}
layer {
  name: "scale2-layer6-slicer"
  type: "Slice"
  bottom: "scale2-layer5"
  top: "scale2-layer6-slice1"
  top: "scale2-layer6-slice2"
  top: "scale2-layer6-slice3"
  top: "scale2-layer6-slice4"
  top: "scale2-layer6-slice5"
  top: "scale2-layer6-slice6"
  top: "scale2-layer6-slice7"
  top: "scale2-layer6-slice8"
  top: "scale2-layer6-slice9"
  top: "scale2-layer6-slice10"
  top: "scale2-layer6-slice11"
  top: "scale2-layer6-slice12"
  slice_param {
    slice_point: 2
    slice_point: 4
    slice_point: 6
    slice_point: 8
    slice_point: 10
    slice_point: 12
    slice_point: 14
    slice_point: 16
    slice_point: 18
    slice_point: 20
    slice_point: 22
    axis: 1
  }
}
layer {
  name: "scale2-layer6-slice1normalized"
  type: "LRN"
  bottom: "scale2-layer6-slice1"
  top: "scale2-layer6-slice1normalized"
  lrn_param {
    local_size: 3
    alpha: 1
    beta: 0.5
    norm_region: ACROSS_CHANNELS
    k: 0
    engine: CAFFE
  }
}
layer {
  name: "scale2-layer6-slice2normalized"
  type: "LRN"
  bottom: "scale2-layer6-slice2"
  top: "scale2-layer6-slice2normalized"
  lrn_param {
    local_size: 3
    alpha: 1
    beta: 0.5
    norm_region: ACROSS_CHANNELS
    k: 0
    engine: CAFFE
  }
}
layer {
  name: "scale2-layer6-slice3normalized"
  type: "LRN"
  bottom: "scale2-layer6-slice3"
  top: "scale2-layer6-slice3normalized"
  lrn_param {
    local_size: 3
    alpha: 1
    beta: 0.5
    norm_region: ACROSS_CHANNELS
    k: 0
    engine: CAFFE
  }
}
layer {
  name: "scale2-layer6-slice4normalized"
  type: "LRN"
  bottom: "scale2-layer6-slice4"
  top: "scale2-layer6-slice4normalized"
  lrn_param {
    local_size: 3
    alpha: 1
    beta: 0.5
    norm_region: ACROSS_CHANNELS
    k: 0
    engine: CAFFE
  }
}
layer {
  name: "scale2-layer6-slice5normalized"
  type: "LRN"
  bottom: "scale2-layer6-slice5"
  top: "scale2-layer6-slice5normalized"
  lrn_param {
    local_size: 3
    alpha: 1
    beta: 0.5
    norm_region: ACROSS_CHANNELS
    k: 0
    engine: CAFFE
  }
}
layer {
  name: "scale2-layer6-slice6normalized"
  type: "LRN"
  bottom: "scale2-layer6-slice6"
  top: "scale2-layer6-slice6normalized"
  lrn_param {
    local_size: 3
    alpha: 1
    beta: 0.5
    norm_region: ACROSS_CHANNELS
    k: 0
    engine: CAFFE
  }
}
layer {
  name: "scale2-layer6-slice7normalized"
  type: "LRN"
  bottom: "scale2-layer6-slice7"
  top: "scale2-layer6-slice7normalized"
  lrn_param {
    local_size: 3
    alpha: 1
    beta: 0.5
    norm_region: ACROSS_CHANNELS
    k: 0
    engine: CAFFE
  }
}
layer {
  name: "scale2-layer6-slice8normalized"
  type: "LRN"
  bottom: "scale2-layer6-slice8"
  top: "scale2-layer6-slice8normalized"
  lrn_param {
    local_size: 3
    alpha: 1
    beta: 0.5
    norm_region: ACROSS_CHANNELS
    k: 0
    engine: CAFFE
  }
}
layer {
  name: "scale2-layer6-slice9normalized"
  type: "LRN"
  bottom: "scale2-layer6-slice9"
  top: "scale2-layer6-slice9normalized"
  lrn_param {
    local_size: 3
    alpha: 1
    beta: 0.5
    norm_region: ACROSS_CHANNELS
    k: 0
    engine: CAFFE
  }
}
layer {
  name: "scale2-layer6-slice10normalized"
  type: "LRN"
  bottom: "scale2-layer6-slice10"
  top: "scale2-layer6-slice10normalized"
  lrn_param {
    local_size: 3
    alpha: 1
    beta: 0.5
    norm_region: ACROSS_CHANNELS
    k: 0
    engine: CAFFE
  }
}
layer {
  name: "scale2-layer6-slice11normalized"
  type: "LRN"
  bottom: "scale2-layer6-slice11"
  top: "scale2-layer6-slice11normalized"
  lrn_param {
    local_size: 3
    alpha: 1
    beta: 0.5
    norm_region: ACROSS_CHANNELS
    k: 0
    engine: CAFFE
  }
}
layer {
  name: "scale2-layer6-slice12normalized"
  type: "LRN"
  bottom: "scale2-layer6-slice12"
  top: "scale2-layer6-slice12normalized"
  lrn_param {
    local_size: 3
    alpha: 1
    beta: 0.5
    norm_region: ACROSS_CHANNELS
    k: 0
    engine: CAFFE
  }
}
layer {
  name: "scale2-layer6"
  type: "Concat"
  bottom: "scale2-layer6-slice1normalized"
  bottom: "scale2-layer6-slice2normalized"
  bottom: "scale2-layer6-slice3normalized"
  bottom: "scale2-layer6-slice4normalized"
  bottom: "scale2-layer6-slice5normalized"
  bottom: "scale2-layer6-slice6normalized"
  bottom: "scale2-layer6-slice7normalized"
  bottom: "scale2-layer6-slice8normalized"
  bottom: "scale2-layer6-slice9normalized"
  bottom: "scale2-layer6-slice10normalized"
  bottom: "scale2-layer6-slice11normalized"
  bottom: "scale2-layer6-slice12normalized"
  top: "scale2-layer6"
}
layer {
  name: "scale2-layer7"
  type: "Convolution"
  bottom: "scale2-layer6"
  top: "scale2-layer7"
  convolution_param {
    num_output: 24
    pad: 4
    stride: 1
    kernel_h: 9
    kernel_w: 9
  }
}
layer {
  name: "scale2-layer8"
  type: "Deconvolution"
  bottom: "scale2-layer7"
  top: "scale2-layer8"
  param {
    lr_mult: 0
    decay_mult: 0
  }
  convolution_param {
    num_output: 24
    bias_term: false
    pad: 2
    kernel_size: 8
    group: 24
    stride: 4
    weight_filler {
      type: "bilinear"
    }
  }
}
layer {
  name: "scale3-layer1"
  type: "Convolution"
  bottom: "data"
  top: "scale3-layer1"
  param {
    lr_mult: 0
    decay_mult: 0
  }
  convolution_param {
    num_output: 3
    bias_term: false
    pad: 1
    kernel_size: 4
    group: 3
    stride: 2
    weight_filler {
      type: "bilinear"
    }
  }
}
layer {
  name: "scale3-layer2"
  type: "Convolution"
  bottom: "scale3-layer1"
  top: "scale3-layer2"
  convolution_param {
    num_output: 3
    pad: 3
    stride: 1
    kernel_h: 7
    kernel_w: 7
  }
}
layer {
  name: "scale3-layer3"
  type: "Convolution"
  bottom: "scale3-layer2"
  top: "scale3-layer3"
  convolution_param {
    num_output: 24
    pad: 3
    stride: 1
    kernel_h: 7
    kernel_w: 7
  }
}
layer {
  name: "scale3-layer4"
  type: "Power"
  bottom: "scale3-layer3"
  top: "scale3-layer4"
  power_param {
    power: 2
    scale: 1
    shift: 0
  }
}
layer {
  name: "scale3-layer5"
  type: "Pooling"
  bottom: "scale3-layer4"
  top: "scale3-layer5"
  pooling_param {
    pool: MAX
    kernel_h: 4
    kernel_w: 4
    stride_h: 4
    stride_w: 4
    pad_h: 0
    pad_w: 0
  }
}
layer {
  name: "scale3-layer6-slicer"
  type: "Slice"
  bottom: "scale3-layer5"
  top: "scale3-layer6-slice1"
  top: "scale3-layer6-slice2"
  top: "scale3-layer6-slice3"
  top: "scale3-layer6-slice4"
  top: "scale3-layer6-slice5"
  top: "scale3-layer6-slice6"
  top: "scale3-layer6-slice7"
  top: "scale3-layer6-slice8"
  top: "scale3-layer6-slice9"
  top: "scale3-layer6-slice10"
  top: "scale3-layer6-slice11"
  top: "scale3-layer6-slice12"
  slice_param {
    slice_point: 2
    slice_point: 4
    slice_point: 6
    slice_point: 8
    slice_point: 10
    slice_point: 12
    slice_point: 14
    slice_point: 16
    slice_point: 18
    slice_point: 20
    slice_point: 22
    axis: 1
  }
}
layer {
  name: "scale3-layer6-slice1normalized"
  type: "LRN"
  bottom: "scale3-layer6-slice1"
  top: "scale3-layer6-slice1normalized"
  lrn_param {
    local_size: 3
    alpha: 1
    beta: 0.5
    norm_region: ACROSS_CHANNELS
    k: 0
    engine: CAFFE
  }
}
layer {
  name: "scale3-layer6-slice2normalized"
  type: "LRN"
  bottom: "scale3-layer6-slice2"
  top: "scale3-layer6-slice2normalized"
  lrn_param {
    local_size: 3
    alpha: 1
    beta: 0.5
    norm_region: ACROSS_CHANNELS
    k: 0
    engine: CAFFE
  }
}
layer {
  name: "scale3-layer6-slice3normalized"
  type: "LRN"
  bottom: "scale3-layer6-slice3"
  top: "scale3-layer6-slice3normalized"
  lrn_param {
    local_size: 3
    alpha: 1
    beta: 0.5
    norm_region: ACROSS_CHANNELS
    k: 0
    engine: CAFFE
  }
}
layer {
  name: "scale3-layer6-slice4normalized"
  type: "LRN"
  bottom: "scale3-layer6-slice4"
  top: "scale3-layer6-slice4normalized"
  lrn_param {
    local_size: 3
    alpha: 1
    beta: 0.5
    norm_region: ACROSS_CHANNELS
    k: 0
    engine: CAFFE
  }
}
layer {
  name: "scale3-layer6-slice5normalized"
  type: "LRN"
  bottom: "scale3-layer6-slice5"
  top: "scale3-layer6-slice5normalized"
  lrn_param {
    local_size: 3
    alpha: 1
    beta: 0.5
    norm_region: ACROSS_CHANNELS
    k: 0
    engine: CAFFE
  }
}
layer {
  name: "scale3-layer6-slice6normalized"
  type: "LRN"
  bottom: "scale3-layer6-slice6"
  top: "scale3-layer6-slice6normalized"
  lrn_param {
    local_size: 3
    alpha: 1
    beta: 0.5
    norm_region: ACROSS_CHANNELS
    k: 0
    engine: CAFFE
  }
}
layer {
  name: "scale3-layer6-slice7normalized"
  type: "LRN"
  bottom: "scale3-layer6-slice7"
  top: "scale3-layer6-slice7normalized"
  lrn_param {
    local_size: 3
    alpha: 1
    beta: 0.5
    norm_region: ACROSS_CHANNELS
    k: 0
    engine: CAFFE
  }
}
layer {
  name: "scale3-layer6-slice8normalized"
  type: "LRN"
  bottom: "scale3-layer6-slice8"
  top: "scale3-layer6-slice8normalized"
  lrn_param {
    local_size: 3
    alpha: 1
    beta: 0.5
    norm_region: ACROSS_CHANNELS
    k: 0
    engine: CAFFE
  }
}
layer {
  name: "scale3-layer6-slice9normalized"
  type: "LRN"
  bottom: "scale3-layer6-slice9"
  top: "scale3-layer6-slice9normalized"
  lrn_param {
    local_size: 3
    alpha: 1
    beta: 0.5
    norm_region: ACROSS_CHANNELS
    k: 0
    engine: CAFFE
  }
}
layer {
  name: "scale3-layer6-slice10normalized"
  type: "LRN"
  bottom: "scale3-layer6-slice10"
  top: "scale3-layer6-slice10normalized"
  lrn_param {
    local_size: 3
    alpha: 1
    beta: 0.5
    norm_region: ACROSS_CHANNELS
    k: 0
    engine: CAFFE
  }
}
layer {
  name: "scale3-layer6-slice11normalized"
  type: "LRN"
  bottom: "scale3-layer6-slice11"
  top: "scale3-layer6-slice11normalized"
  lrn_param {
    local_size: 3
    alpha: 1
    beta: 0.5
    norm_region: ACROSS_CHANNELS
    k: 0
    engine: CAFFE
  }
}
layer {
  name: "scale3-layer6-slice12normalized"
  type: "LRN"
  bottom: "scale3-layer6-slice12"
  top: "scale3-layer6-slice12normalized"
  lrn_param {
    local_size: 3
    alpha: 1
    beta: 0.5
    norm_region: ACROSS_CHANNELS
    k: 0
    engine: CAFFE
  }
}
layer {
  name: "scale3-layer6"
  type: "Concat"
  bottom: "scale3-layer6-slice1normalized"
  bottom: "scale3-layer6-slice2normalized"
  bottom: "scale3-layer6-slice3normalized"
  bottom: "scale3-layer6-slice4normalized"
  bottom: "scale3-layer6-slice5normalized"
  bottom: "scale3-layer6-slice6normalized"
  bottom: "scale3-layer6-slice7normalized"
  bottom: "scale3-layer6-slice8normalized"
  bottom: "scale3-layer6-slice9normalized"
  bottom: "scale3-layer6-slice10normalized"
  bottom: "scale3-layer6-slice11normalized"
  bottom: "scale3-layer6-slice12normalized"
  top: "scale3-layer6"
}
layer {
  name: "scale3-layer7"
  type: "Convolution"
  bottom: "scale3-layer6"
  top: "scale3-layer7"
  convolution_param {
    num_output: 24
    pad: 4
    stride: 1
    kernel_h: 9
    kernel_w: 9
  }
}
layer {
  name: "scale3-layer8"
  type: "Deconvolution"
  bottom: "scale3-layer7"
  top: "scale3-layer8"
  param {
    lr_mult: 0
    decay_mult: 0
  }
  convolution_param {
    num_output: 24
    bias_term: false
    pad: 1
    kernel_size: 4
    group: 24
    stride: 2
    weight_filler {
      type: "bilinear"
    }
  }
}
layer {
  name: "scale4-layer1"
  type: "Convolution"
  bottom: "data"
  top: "scale4-layer1"
  param {
    lr_mult: 0
    decay_mult: 0
  }
  convolution_param {
    num_output: 3
    bias_term: false
    pad: 0
    kernel_size: 1
    group: 3
    stride: 1
    weight_filler {
      type: "bilinear"
    }
  }
}
layer {
  name: "scale4-layer2"
  type: "Convolution"
  bottom: "scale4-layer1"
  top: "scale4-layer2"
  convolution_param {
    num_output: 3
    pad: 3
    stride: 1
    kernel_h: 7
    kernel_w: 7
  }
}
layer {
  name: "scale4-layer3"
  type: "Convolution"
  bottom: "scale4-layer2"
  top: "scale4-layer3"
  convolution_param {
    num_output: 24
    pad: 3
    stride: 1
    kernel_h: 7
    kernel_w: 7
  }
}
layer {
  name: "scale4-layer4"
  type: "Power"
  bottom: "scale4-layer3"
  top: "scale4-layer4"
  power_param {
    power: 2
    scale: 1
    shift: 0
  }
}
layer {
  name: "scale4-layer5"
  type: "Pooling"
  bottom: "scale4-layer4"
  top: "scale4-layer5"
  pooling_param {
    pool: MAX
    kernel_h: 4
    kernel_w: 4
    stride_h: 4
    stride_w: 4
    pad_h: 0
    pad_w: 0
  }
}
layer {
  name: "scale4-layer6-slicer"
  type: "Slice"
  bottom: "scale4-layer5"
  top: "scale4-layer6-slice1"
  top: "scale4-layer6-slice2"
  top: "scale4-layer6-slice3"
  top: "scale4-layer6-slice4"
  top: "scale4-layer6-slice5"
  top: "scale4-layer6-slice6"
  top: "scale4-layer6-slice7"
  top: "scale4-layer6-slice8"
  top: "scale4-layer6-slice9"
  top: "scale4-layer6-slice10"
  top: "scale4-layer6-slice11"
  top: "scale4-layer6-slice12"
  slice_param {
    slice_point: 2
    slice_point: 4
    slice_point: 6
    slice_point: 8
    slice_point: 10
    slice_point: 12
    slice_point: 14
    slice_point: 16
    slice_point: 18
    slice_point: 20
    slice_point: 22
    axis: 1
  }
}
layer {
  name: "scale4-layer6-slice1normalized"
  type: "LRN"
  bottom: "scale4-layer6-slice1"
  top: "scale4-layer6-slice1normalized"
  lrn_param {
    local_size: 3
    alpha: 1
    beta: 0.5
    norm_region: ACROSS_CHANNELS
    k: 0
    engine: CAFFE
  }
}
layer {
  name: "scale4-layer6-slice2normalized"
  type: "LRN"
  bottom: "scale4-layer6-slice2"
  top: "scale4-layer6-slice2normalized"
  lrn_param {
    local_size: 3
    alpha: 1
    beta: 0.5
    norm_region: ACROSS_CHANNELS
    k: 0
    engine: CAFFE
  }
}
layer {
  name: "scale4-layer6-slice3normalized"
  type: "LRN"
  bottom: "scale4-layer6-slice3"
  top: "scale4-layer6-slice3normalized"
  lrn_param {
    local_size: 3
    alpha: 1
    beta: 0.5
    norm_region: ACROSS_CHANNELS
    k: 0
    engine: CAFFE
  }
}
layer {
  name: "scale4-layer6-slice4normalized"
  type: "LRN"
  bottom: "scale4-layer6-slice4"
  top: "scale4-layer6-slice4normalized"
  lrn_param {
    local_size: 3
    alpha: 1
    beta: 0.5
    norm_region: ACROSS_CHANNELS
    k: 0
    engine: CAFFE
  }
}
layer {
  name: "scale4-layer6-slice5normalized"
  type: "LRN"
  bottom: "scale4-layer6-slice5"
  top: "scale4-layer6-slice5normalized"
  lrn_param {
    local_size: 3
    alpha: 1
    beta: 0.5
    norm_region: ACROSS_CHANNELS
    k: 0
    engine: CAFFE
  }
}
layer {
  name: "scale4-layer6-slice6normalized"
  type: "LRN"
  bottom: "scale4-layer6-slice6"
  top: "scale4-layer6-slice6normalized"
  lrn_param {
    local_size: 3
    alpha: 1
    beta: 0.5
    norm_region: ACROSS_CHANNELS
    k: 0
    engine: CAFFE
  }
}
layer {
  name: "scale4-layer6-slice7normalized"
  type: "LRN"
  bottom: "scale4-layer6-slice7"
  top: "scale4-layer6-slice7normalized"
  lrn_param {
    local_size: 3
    alpha: 1
    beta: 0.5
    norm_region: ACROSS_CHANNELS
    k: 0
    engine: CAFFE
  }
}
layer {
  name: "scale4-layer6-slice8normalized"
  type: "LRN"
  bottom: "scale4-layer6-slice8"
  top: "scale4-layer6-slice8normalized"
  lrn_param {
    local_size: 3
    alpha: 1
    beta: 0.5
    norm_region: ACROSS_CHANNELS
    k: 0
    engine: CAFFE
  }
}
layer {
  name: "scale4-layer6-slice9normalized"
  type: "LRN"
  bottom: "scale4-layer6-slice9"
  top: "scale4-layer6-slice9normalized"
  lrn_param {
    local_size: 3
    alpha: 1
    beta: 0.5
    norm_region: ACROSS_CHANNELS
    k: 0
    engine: CAFFE
  }
}
layer {
  name: "scale4-layer6-slice10normalized"
  type: "LRN"
  bottom: "scale4-layer6-slice10"
  top: "scale4-layer6-slice10normalized"
  lrn_param {
    local_size: 3
    alpha: 1
    beta: 0.5
    norm_region: ACROSS_CHANNELS
    k: 0
    engine: CAFFE
  }
}
layer {
  name: "scale4-layer6-slice11normalized"
  type: "LRN"
  bottom: "scale4-layer6-slice11"
  top: "scale4-layer6-slice11normalized"
  lrn_param {
    local_size: 3
    alpha: 1
    beta: 0.5
    norm_region: ACROSS_CHANNELS
    k: 0
    engine: CAFFE
  }
}
layer {
  name: "scale4-layer6-slice12normalized"
  type: "LRN"
  bottom: "scale4-layer6-slice12"
  top: "scale4-layer6-slice12normalized"
  lrn_param {
    local_size: 3
    alpha: 1
    beta: 0.5
    norm_region: ACROSS_CHANNELS
    k: 0
    engine: CAFFE
  }
}
layer {
  name: "scale4-layer6"
  type: "Concat"
  bottom: "scale4-layer6-slice1normalized"
  bottom: "scale4-layer6-slice2normalized"
  bottom: "scale4-layer6-slice3normalized"
  bottom: "scale4-layer6-slice4normalized"
  bottom: "scale4-layer6-slice5normalized"
  bottom: "scale4-layer6-slice6normalized"
  bottom: "scale4-layer6-slice7normalized"
  bottom: "scale4-layer6-slice8normalized"
  bottom: "scale4-layer6-slice9normalized"
  bottom: "scale4-layer6-slice10normalized"
  bottom: "scale4-layer6-slice11normalized"
  bottom: "scale4-layer6-slice12normalized"
  top: "scale4-layer6"
}
layer {
  name: "scale4-layer7"
  type: "Convolution"
  bottom: "scale4-layer6"
  top: "scale4-layer7"
  convolution_param {
    num_output: 24
    pad: 4
    stride: 1
    kernel_h: 9
    kernel_w: 9
  }
}
layer {
  name: "scale4-layer8"
  type: "Deconvolution"
  bottom: "scale4-layer7"
  top: "scale4-layer8"
  param {
    lr_mult: 0
    decay_mult: 0
  }
  convolution_param {
    num_output: 24
    bias_term: false
    pad: 0
    kernel_size: 1
    group: 24
    stride: 1
    weight_filler {
      type: "bilinear"
    }
  }
}
layer {
  name: "decoding-layer1"
  type: "Concat"
  bottom: "scale1-layer8"
  bottom: "scale2-layer8"
  bottom: "scale3-layer8"
  bottom: "scale4-layer8"
  top: "decoding-layer1"
}
layer {
  name: "decoding-layer2"
  type: "Convolution"
  bottom: "decoding-layer1"
  top: "decoding-layer2"
  convolution_param {
    num_output: 144
    pad: 0
    stride: 1
    kernel_h: 1
    kernel_w: 1
  }
}
layer {
  name: "decoding-layer3"
  type: "Softmax"
  bottom: "decoding-layer2"
  top: "decoding-layer3"
}
layer {
  name: "decoding-layer4"
  type: "Convolution"
  bottom: "decoding-layer3"
  top: "decoding-layer4"
  convolution_param {
    num_output: 2
    pad: 0
    stride: 1
    kernel_h: 1
    kernel_w: 1
  }
}
I0128 17:56:18.291864  9076 net.cpp:413] Input 0 -> data
I0128 17:56:18.337959  9076 layer_factory.hpp:76] Creating layer data_input_0_split
I0128 17:56:18.337959  9076 net.cpp:106] Creating Layer data_input_0_split
I0128 17:56:18.337959  9076 net.cpp:454] data_input_0_split <- data
I0128 17:56:18.337959  9076 net.cpp:411] data_input_0_split -> data_input_0_split_0
I0128 17:56:18.337959  9076 net.cpp:411] data_input_0_split -> data_input_0_split_1
I0128 17:56:18.337959  9076 net.cpp:411] data_input_0_split -> data_input_0_split_2
I0128 17:56:18.337959  9076 net.cpp:411] data_input_0_split -> data_input_0_split_3
I0128 17:56:18.337959  9076 net.cpp:150] Setting up data_input_0_split
I0128 17:56:18.337959  9076 net.cpp:157] Top shape: 1 3 256 256 (196608)
I0128 17:56:18.337959  9076 net.cpp:157] Top shape: 1 3 256 256 (196608)
I0128 17:56:18.337959  9076 net.cpp:157] Top shape: 1 3 256 256 (196608)
I0128 17:56:18.337959  9076 net.cpp:157] Top shape: 1 3 256 256 (196608)
I0128 17:56:18.337959  9076 net.cpp:165] Memory required for data: 3145728
I0128 17:56:18.337959  9076 layer_factory.hpp:76] Creating layer scale1-layer1
I0128 17:56:18.337959  9076 net.cpp:106] Creating Layer scale1-layer1
I0128 17:56:18.337959  9076 net.cpp:454] scale1-layer1 <- data_input_0_split_0
I0128 17:56:18.337959  9076 net.cpp:411] scale1-layer1 -> scale1-layer1
I0128 17:56:18.793388  9076 cudnn_conv_layer.cpp:194] Reallocating workspace storage: 463680
I0128 17:56:18.793388  9076 net.cpp:150] Setting up scale1-layer1
I0128 17:56:18.793388  9076 net.cpp:157] Top shape: 1 3 32 32 (3072)
I0128 17:56:18.793388  9076 net.cpp:165] Memory required for data: 3158016
I0128 17:56:18.793388  9076 layer_factory.hpp:76] Creating layer scale1-layer2
I0128 17:56:18.793388  9076 net.cpp:106] Creating Layer scale1-layer2
I0128 17:56:18.793388  9076 net.cpp:454] scale1-layer2 <- scale1-layer1
I0128 17:56:18.793388  9076 net.cpp:411] scale1-layer2 -> scale1-layer2
I0128 17:56:18.795389  9076 cudnn_conv_layer.cpp:194] Reallocating workspace storage: 35328
I0128 17:56:18.795389  9076 net.cpp:150] Setting up scale1-layer2
I0128 17:56:18.795389  9076 net.cpp:157] Top shape: 1 3 32 32 (3072)
I0128 17:56:18.795389  9076 net.cpp:165] Memory required for data: 3170304
I0128 17:56:18.795389  9076 layer_factory.hpp:76] Creating layer scale1-layer3
I0128 17:56:18.795389  9076 net.cpp:106] Creating Layer scale1-layer3
I0128 17:56:18.795389  9076 net.cpp:454] scale1-layer3 <- scale1-layer2
I0128 17:56:18.795389  9076 net.cpp:411] scale1-layer3 -> scale1-layer3
I0128 17:56:18.798391  9076 cudnn_conv_layer.cpp:194] Reallocating workspace storage: 35328
I0128 17:56:18.798391  9076 net.cpp:150] Setting up scale1-layer3
I0128 17:56:18.798391  9076 net.cpp:157] Top shape: 1 24 32 32 (24576)
I0128 17:56:18.798391  9076 net.cpp:165] Memory required for data: 3268608
I0128 17:56:18.798391  9076 layer_factory.hpp:76] Creating layer scale1-layer4
I0128 17:56:18.798391  9076 net.cpp:106] Creating Layer scale1-layer4
I0128 17:56:18.798391  9076 net.cpp:454] scale1-layer4 <- scale1-layer3
I0128 17:56:18.798391  9076 net.cpp:411] scale1-layer4 -> scale1-layer4
I0128 17:56:18.798391  9076 net.cpp:150] Setting up scale1-layer4
I0128 17:56:18.798391  9076 net.cpp:157] Top shape: 1 24 32 32 (24576)
I0128 17:56:18.798391  9076 net.cpp:165] Memory required for data: 3366912
I0128 17:56:18.798391  9076 layer_factory.hpp:76] Creating layer scale1-layer5
I0128 17:56:18.798391  9076 net.cpp:106] Creating Layer scale1-layer5
I0128 17:56:18.798391  9076 net.cpp:454] scale1-layer5 <- scale1-layer4
I0128 17:56:18.798391  9076 net.cpp:411] scale1-layer5 -> scale1-layer5
I0128 17:56:18.799392  9076 net.cpp:150] Setting up scale1-layer5
I0128 17:56:18.799392  9076 net.cpp:157] Top shape: 1 24 8 8 (1536)
I0128 17:56:18.799392  9076 net.cpp:165] Memory required for data: 3373056
I0128 17:56:18.799392  9076 layer_factory.hpp:76] Creating layer scale1-layer6-slicer
I0128 17:56:18.799392  9076 net.cpp:106] Creating Layer scale1-layer6-slicer
I0128 17:56:18.799392  9076 net.cpp:454] scale1-layer6-slicer <- scale1-layer5
I0128 17:56:18.799392  9076 net.cpp:411] scale1-layer6-slicer -> scale1-layer6-slice1
I0128 17:56:18.799392  9076 net.cpp:411] scale1-layer6-slicer -> scale1-layer6-slice2
I0128 17:56:18.799392  9076 net.cpp:411] scale1-layer6-slicer -> scale1-layer6-slice3
I0128 17:56:18.799392  9076 net.cpp:411] scale1-layer6-slicer -> scale1-layer6-slice4
I0128 17:56:18.799392  9076 net.cpp:411] scale1-layer6-slicer -> scale1-layer6-slice5
I0128 17:56:18.799392  9076 net.cpp:411] scale1-layer6-slicer -> scale1-layer6-slice6
I0128 17:56:18.799392  9076 net.cpp:411] scale1-layer6-slicer -> scale1-layer6-slice7
I0128 17:56:18.799392  9076 net.cpp:411] scale1-layer6-slicer -> scale1-layer6-slice8
I0128 17:56:18.799392  9076 net.cpp:411] scale1-layer6-slicer -> scale1-layer6-slice9
I0128 17:56:18.799392  9076 net.cpp:411] scale1-layer6-slicer -> scale1-layer6-slice10
I0128 17:56:18.799392  9076 net.cpp:411] scale1-layer6-slicer -> scale1-layer6-slice11
I0128 17:56:18.799392  9076 net.cpp:411] scale1-layer6-slicer -> scale1-layer6-slice12
I0128 17:56:18.799392  9076 net.cpp:150] Setting up scale1-layer6-slicer
I0128 17:56:18.799392  9076 net.cpp:157] Top shape: 1 2 8 8 (128)
I0128 17:56:18.799392  9076 net.cpp:157] Top shape: 1 2 8 8 (128)
I0128 17:56:18.799392  9076 net.cpp:157] Top shape: 1 2 8 8 (128)
I0128 17:56:18.799392  9076 net.cpp:157] Top shape: 1 2 8 8 (128)
I0128 17:56:18.799392  9076 net.cpp:157] Top shape: 1 2 8 8 (128)
I0128 17:56:18.799392  9076 net.cpp:157] Top shape: 1 2 8 8 (128)
I0128 17:56:18.799392  9076 net.cpp:157] Top shape: 1 2 8 8 (128)
I0128 17:56:18.800393  9076 net.cpp:157] Top shape: 1 2 8 8 (128)
I0128 17:56:18.800393  9076 net.cpp:157] Top shape: 1 2 8 8 (128)
I0128 17:56:18.800393  9076 net.cpp:157] Top shape: 1 2 8 8 (128)
I0128 17:56:18.800393  9076 net.cpp:157] Top shape: 1 2 8 8 (128)
I0128 17:56:18.800393  9076 net.cpp:157] Top shape: 1 2 8 8 (128)
I0128 17:56:18.800393  9076 net.cpp:165] Memory required for data: 3379200
I0128 17:56:18.800393  9076 layer_factory.hpp:76] Creating layer scale1-layer6-slice1normalized
I0128 17:56:18.800393  9076 net.cpp:106] Creating Layer scale1-layer6-slice1normalized
I0128 17:56:18.800393  9076 net.cpp:454] scale1-layer6-slice1normalized <- scale1-layer6-slice1
I0128 17:56:18.800393  9076 net.cpp:411] scale1-layer6-slice1normalized -> scale1-layer6-slice1normalized
I0128 17:56:18.800393  9076 net.cpp:150] Setting up scale1-layer6-slice1normalized
I0128 17:56:18.800393  9076 net.cpp:157] Top shape: 1 2 8 8 (128)
I0128 17:56:18.800393  9076 net.cpp:165] Memory required for data: 3379712
I0128 17:56:18.800393  9076 layer_factory.hpp:76] Creating layer scale1-layer6-slice2normalized
I0128 17:56:18.800393  9076 net.cpp:106] Creating Layer scale1-layer6-slice2normalized
I0128 17:56:18.800393  9076 net.cpp:454] scale1-layer6-slice2normalized <- scale1-layer6-slice2
I0128 17:56:18.800393  9076 net.cpp:411] scale1-layer6-slice2normalized -> scale1-layer6-slice2normalized
I0128 17:56:18.800393  9076 net.cpp:150] Setting up scale1-layer6-slice2normalized
I0128 17:56:18.800393  9076 net.cpp:157] Top shape: 1 2 8 8 (128)
I0128 17:56:18.800393  9076 net.cpp:165] Memory required for data: 3380224
I0128 17:56:18.800393  9076 layer_factory.hpp:76] Creating layer scale1-layer6-slice3normalized
I0128 17:56:18.800393  9076 net.cpp:106] Creating Layer scale1-layer6-slice3normalized
I0128 17:56:18.800393  9076 net.cpp:454] scale1-layer6-slice3normalized <- scale1-layer6-slice3
I0128 17:56:18.800393  9076 net.cpp:411] scale1-layer6-slice3normalized -> scale1-layer6-slice3normalized
I0128 17:56:18.800393  9076 net.cpp:150] Setting up scale1-layer6-slice3normalized
I0128 17:56:18.800393  9076 net.cpp:157] Top shape: 1 2 8 8 (128)
I0128 17:56:18.800393  9076 net.cpp:165] Memory required for data: 3380736
I0128 17:56:18.800393  9076 layer_factory.hpp:76] Creating layer scale1-layer6-slice4normalized
I0128 17:56:18.800393  9076 net.cpp:106] Creating Layer scale1-layer6-slice4normalized
I0128 17:56:18.800393  9076 net.cpp:454] scale1-layer6-slice4normalized <- scale1-layer6-slice4
I0128 17:56:18.800393  9076 net.cpp:411] scale1-layer6-slice4normalized -> scale1-layer6-slice4normalized
I0128 17:56:18.800393  9076 net.cpp:150] Setting up scale1-layer6-slice4normalized
I0128 17:56:18.800393  9076 net.cpp:157] Top shape: 1 2 8 8 (128)
I0128 17:56:18.800393  9076 net.cpp:165] Memory required for data: 3381248
I0128 17:56:18.800393  9076 layer_factory.hpp:76] Creating layer scale1-layer6-slice5normalized
I0128 17:56:18.800393  9076 net.cpp:106] Creating Layer scale1-layer6-slice5normalized
I0128 17:56:18.800393  9076 net.cpp:454] scale1-layer6-slice5normalized <- scale1-layer6-slice5
I0128 17:56:18.800393  9076 net.cpp:411] scale1-layer6-slice5normalized -> scale1-layer6-slice5normalized
I0128 17:56:18.800393  9076 net.cpp:150] Setting up scale1-layer6-slice5normalized
I0128 17:56:18.800393  9076 net.cpp:157] Top shape: 1 2 8 8 (128)
I0128 17:56:18.800393  9076 net.cpp:165] Memory required for data: 3381760
I0128 17:56:18.800393  9076 layer_factory.hpp:76] Creating layer scale1-layer6-slice6normalized
I0128 17:56:18.800393  9076 net.cpp:106] Creating Layer scale1-layer6-slice6normalized
I0128 17:56:18.800393  9076 net.cpp:454] scale1-layer6-slice6normalized <- scale1-layer6-slice6
I0128 17:56:18.800393  9076 net.cpp:411] scale1-layer6-slice6normalized -> scale1-layer6-slice6normalized
I0128 17:56:18.800393  9076 net.cpp:150] Setting up scale1-layer6-slice6normalized
I0128 17:56:18.800393  9076 net.cpp:157] Top shape: 1 2 8 8 (128)
I0128 17:56:18.800393  9076 net.cpp:165] Memory required for data: 3382272
I0128 17:56:18.800393  9076 layer_factory.hpp:76] Creating layer scale1-layer6-slice7normalized
I0128 17:56:18.800393  9076 net.cpp:106] Creating Layer scale1-layer6-slice7normalized
I0128 17:56:18.800393  9076 net.cpp:454] scale1-layer6-slice7normalized <- scale1-layer6-slice7
I0128 17:56:18.800393  9076 net.cpp:411] scale1-layer6-slice7normalized -> scale1-layer6-slice7normalized
I0128 17:56:18.800393  9076 net.cpp:150] Setting up scale1-layer6-slice7normalized
I0128 17:56:18.800393  9076 net.cpp:157] Top shape: 1 2 8 8 (128)
I0128 17:56:18.800393  9076 net.cpp:165] Memory required for data: 3382784
I0128 17:56:18.800393  9076 layer_factory.hpp:76] Creating layer scale1-layer6-slice8normalized
I0128 17:56:18.800393  9076 net.cpp:106] Creating Layer scale1-layer6-slice8normalized
I0128 17:56:18.800393  9076 net.cpp:454] scale1-layer6-slice8normalized <- scale1-layer6-slice8
I0128 17:56:18.800393  9076 net.cpp:411] scale1-layer6-slice8normalized -> scale1-layer6-slice8normalized
I0128 17:56:18.800393  9076 net.cpp:150] Setting up scale1-layer6-slice8normalized
I0128 17:56:18.800393  9076 net.cpp:157] Top shape: 1 2 8 8 (128)
I0128 17:56:18.800393  9076 net.cpp:165] Memory required for data: 3383296
I0128 17:56:18.800393  9076 layer_factory.hpp:76] Creating layer scale1-layer6-slice9normalized
I0128 17:56:18.800393  9076 net.cpp:106] Creating Layer scale1-layer6-slice9normalized
I0128 17:56:18.800393  9076 net.cpp:454] scale1-layer6-slice9normalized <- scale1-layer6-slice9
I0128 17:56:18.800393  9076 net.cpp:411] scale1-layer6-slice9normalized -> scale1-layer6-slice9normalized
I0128 17:56:18.801393  9076 net.cpp:150] Setting up scale1-layer6-slice9normalized
I0128 17:56:18.801393  9076 net.cpp:157] Top shape: 1 2 8 8 (128)
I0128 17:56:18.801393  9076 net.cpp:165] Memory required for data: 3383808
I0128 17:56:18.801393  9076 layer_factory.hpp:76] Creating layer scale1-layer6-slice10normalized
I0128 17:56:18.801393  9076 net.cpp:106] Creating Layer scale1-layer6-slice10normalized
I0128 17:56:18.801393  9076 net.cpp:454] scale1-layer6-slice10normalized <- scale1-layer6-slice10
I0128 17:56:18.801393  9076 net.cpp:411] scale1-layer6-slice10normalized -> scale1-layer6-slice10normalized
I0128 17:56:18.801393  9076 net.cpp:150] Setting up scale1-layer6-slice10normalized
I0128 17:56:18.801393  9076 net.cpp:157] Top shape: 1 2 8 8 (128)
I0128 17:56:18.801393  9076 net.cpp:165] Memory required for data: 3384320
I0128 17:56:18.801393  9076 layer_factory.hpp:76] Creating layer scale1-layer6-slice11normalized
I0128 17:56:18.801393  9076 net.cpp:106] Creating Layer scale1-layer6-slice11normalized
I0128 17:56:18.801393  9076 net.cpp:454] scale1-layer6-slice11normalized <- scale1-layer6-slice11
I0128 17:56:18.801393  9076 net.cpp:411] scale1-layer6-slice11normalized -> scale1-layer6-slice11normalized
I0128 17:56:18.801393  9076 net.cpp:150] Setting up scale1-layer6-slice11normalized
I0128 17:56:18.801393  9076 net.cpp:157] Top shape: 1 2 8 8 (128)
I0128 17:56:18.801393  9076 net.cpp:165] Memory required for data: 3384832
I0128 17:56:18.801393  9076 layer_factory.hpp:76] Creating layer scale1-layer6-slice12normalized
I0128 17:56:18.801393  9076 net.cpp:106] Creating Layer scale1-layer6-slice12normalized
I0128 17:56:18.801393  9076 net.cpp:454] scale1-layer6-slice12normalized <- scale1-layer6-slice12
I0128 17:56:18.801393  9076 net.cpp:411] scale1-layer6-slice12normalized -> scale1-layer6-slice12normalized
I0128 17:56:18.801393  9076 net.cpp:150] Setting up scale1-layer6-slice12normalized
I0128 17:56:18.801393  9076 net.cpp:157] Top shape: 1 2 8 8 (128)
I0128 17:56:18.801393  9076 net.cpp:165] Memory required for data: 3385344
I0128 17:56:18.801393  9076 layer_factory.hpp:76] Creating layer scale1-layer6
I0128 17:56:18.801393  9076 net.cpp:106] Creating Layer scale1-layer6
I0128 17:56:18.801393  9076 net.cpp:454] scale1-layer6 <- scale1-layer6-slice1normalized
I0128 17:56:18.801393  9076 net.cpp:454] scale1-layer6 <- scale1-layer6-slice2normalized
I0128 17:56:18.801393  9076 net.cpp:454] scale1-layer6 <- scale1-layer6-slice3normalized
I0128 17:56:18.801393  9076 net.cpp:454] scale1-layer6 <- scale1-layer6-slice4normalized
I0128 17:56:18.801393  9076 net.cpp:454] scale1-layer6 <- scale1-layer6-slice5normalized
I0128 17:56:18.801393  9076 net.cpp:454] scale1-layer6 <- scale1-layer6-slice6normalized
I0128 17:56:18.801393  9076 net.cpp:454] scale1-layer6 <- scale1-layer6-slice7normalized
I0128 17:56:18.801393  9076 net.cpp:454] scale1-layer6 <- scale1-layer6-slice8normalized
I0128 17:56:18.801393  9076 net.cpp:454] scale1-layer6 <- scale1-layer6-slice9normalized
I0128 17:56:18.801393  9076 net.cpp:454] scale1-layer6 <- scale1-layer6-slice10normalized
I0128 17:56:18.801393  9076 net.cpp:454] scale1-layer6 <- scale1-layer6-slice11normalized
I0128 17:56:18.801393  9076 net.cpp:454] scale1-layer6 <- scale1-layer6-slice12normalized
I0128 17:56:18.801393  9076 net.cpp:411] scale1-layer6 -> scale1-layer6
I0128 17:56:18.801393  9076 net.cpp:150] Setting up scale1-layer6
I0128 17:56:18.801393  9076 net.cpp:157] Top shape: 1 24 8 8 (1536)
I0128 17:56:18.801393  9076 net.cpp:165] Memory required for data: 3391488
I0128 17:56:18.801393  9076 layer_factory.hpp:76] Creating layer scale1-layer7
I0128 17:56:18.801393  9076 net.cpp:106] Creating Layer scale1-layer7
I0128 17:56:18.801393  9076 net.cpp:454] scale1-layer7 <- scale1-layer6
I0128 17:56:18.801393  9076 net.cpp:411] scale1-layer7 -> scale1-layer7
I0128 17:56:18.803395  9076 cudnn_conv_layer.cpp:194] Reallocating workspace storage: 1492992
I0128 17:56:18.804395  9076 net.cpp:150] Setting up scale1-layer7
I0128 17:56:18.804395  9076 net.cpp:157] Top shape: 1 24 8 8 (1536)
I0128 17:56:18.804395  9076 net.cpp:165] Memory required for data: 3397632
I0128 17:56:18.804395  9076 layer_factory.hpp:76] Creating layer scale1-layer8
I0128 17:56:18.804395  9076 net.cpp:106] Creating Layer scale1-layer8
I0128 17:56:18.804395  9076 net.cpp:454] scale1-layer8 <- scale1-layer7
I0128 17:56:18.804395  9076 net.cpp:411] scale1-layer8 -> scale1-layer8
I0128 17:56:18.805397  9076 net.cpp:150] Setting up scale1-layer8
I0128 17:56:18.805397  9076 net.cpp:157] Top shape: 1 24 64 64 (98304)
I0128 17:56:18.805397  9076 net.cpp:165] Memory required for data: 3790848
I0128 17:56:18.805397  9076 layer_factory.hpp:76] Creating layer scale2-layer1
I0128 17:56:18.805397  9076 net.cpp:106] Creating Layer scale2-layer1
I0128 17:56:18.805397  9076 net.cpp:454] scale2-layer1 <- data_input_0_split_1
I0128 17:56:18.805397  9076 net.cpp:411] scale2-layer1 -> scale2-layer1
I0128 17:56:18.811400  9076 cudnn_conv_layer.cpp:194] Reallocating workspace storage: 244224
I0128 17:56:18.811400  9076 net.cpp:150] Setting up scale2-layer1
I0128 17:56:18.811400  9076 net.cpp:157] Top shape: 1 3 64 64 (12288)
I0128 17:56:18.811400  9076 net.cpp:165] Memory required for data: 3840000
I0128 17:56:18.811400  9076 layer_factory.hpp:76] Creating layer scale2-layer2
I0128 17:56:18.811400  9076 net.cpp:106] Creating Layer scale2-layer2
I0128 17:56:18.811400  9076 net.cpp:454] scale2-layer2 <- scale2-layer1
I0128 17:56:18.811400  9076 net.cpp:411] scale2-layer2 -> scale2-layer2
I0128 17:56:18.813402  9076 cudnn_conv_layer.cpp:194] Reallocating workspace storage: 73752
I0128 17:56:18.813402  9076 net.cpp:150] Setting up scale2-layer2
I0128 17:56:18.813402  9076 net.cpp:157] Top shape: 1 3 64 64 (12288)
I0128 17:56:18.813402  9076 net.cpp:165] Memory required for data: 3889152
I0128 17:56:18.813402  9076 layer_factory.hpp:76] Creating layer scale2-layer3
I0128 17:56:18.813402  9076 net.cpp:106] Creating Layer scale2-layer3
I0128 17:56:18.813402  9076 net.cpp:454] scale2-layer3 <- scale2-layer2
I0128 17:56:18.813402  9076 net.cpp:411] scale2-layer3 -> scale2-layer3
I0128 17:56:18.815403  9076 cudnn_conv_layer.cpp:194] Reallocating workspace storage: 73752
I0128 17:56:18.815403  9076 net.cpp:150] Setting up scale2-layer3
I0128 17:56:18.815403  9076 net.cpp:157] Top shape: 1 24 64 64 (98304)
I0128 17:56:18.815403  9076 net.cpp:165] Memory required for data: 4282368
I0128 17:56:18.815403  9076 layer_factory.hpp:76] Creating layer scale2-layer4
I0128 17:56:18.815403  9076 net.cpp:106] Creating Layer scale2-layer4
I0128 17:56:18.815403  9076 net.cpp:454] scale2-layer4 <- scale2-layer3
I0128 17:56:18.815403  9076 net.cpp:411] scale2-layer4 -> scale2-layer4
I0128 17:56:18.815403  9076 net.cpp:150] Setting up scale2-layer4
I0128 17:56:18.815403  9076 net.cpp:157] Top shape: 1 24 64 64 (98304)
I0128 17:56:18.815403  9076 net.cpp:165] Memory required for data: 4675584
I0128 17:56:18.815403  9076 layer_factory.hpp:76] Creating layer scale2-layer5
I0128 17:56:18.815403  9076 net.cpp:106] Creating Layer scale2-layer5
I0128 17:56:18.815403  9076 net.cpp:454] scale2-layer5 <- scale2-layer4
I0128 17:56:18.815403  9076 net.cpp:411] scale2-layer5 -> scale2-layer5
I0128 17:56:18.816404  9076 net.cpp:150] Setting up scale2-layer5
I0128 17:56:18.816404  9076 net.cpp:157] Top shape: 1 24 16 16 (6144)
I0128 17:56:18.816404  9076 net.cpp:165] Memory required for data: 4700160
I0128 17:56:18.816404  9076 layer_factory.hpp:76] Creating layer scale2-layer6-slicer
I0128 17:56:18.816404  9076 net.cpp:106] Creating Layer scale2-layer6-slicer
I0128 17:56:18.816404  9076 net.cpp:454] scale2-layer6-slicer <- scale2-layer5
I0128 17:56:18.816404  9076 net.cpp:411] scale2-layer6-slicer -> scale2-layer6-slice1
I0128 17:56:18.816404  9076 net.cpp:411] scale2-layer6-slicer -> scale2-layer6-slice2
I0128 17:56:18.816404  9076 net.cpp:411] scale2-layer6-slicer -> scale2-layer6-slice3
I0128 17:56:18.816404  9076 net.cpp:411] scale2-layer6-slicer -> scale2-layer6-slice4
I0128 17:56:18.816404  9076 net.cpp:411] scale2-layer6-slicer -> scale2-layer6-slice5
I0128 17:56:18.816404  9076 net.cpp:411] scale2-layer6-slicer -> scale2-layer6-slice6
I0128 17:56:18.816404  9076 net.cpp:411] scale2-layer6-slicer -> scale2-layer6-slice7
I0128 17:56:18.816404  9076 net.cpp:411] scale2-layer6-slicer -> scale2-layer6-slice8
I0128 17:56:18.816404  9076 net.cpp:411] scale2-layer6-slicer -> scale2-layer6-slice9
I0128 17:56:18.816404  9076 net.cpp:411] scale2-layer6-slicer -> scale2-layer6-slice10
I0128 17:56:18.816404  9076 net.cpp:411] scale2-layer6-slicer -> scale2-layer6-slice11
I0128 17:56:18.816404  9076 net.cpp:411] scale2-layer6-slicer -> scale2-layer6-slice12
I0128 17:56:18.816404  9076 net.cpp:150] Setting up scale2-layer6-slicer
I0128 17:56:18.816404  9076 net.cpp:157] Top shape: 1 2 16 16 (512)
I0128 17:56:18.816404  9076 net.cpp:157] Top shape: 1 2 16 16 (512)
I0128 17:56:18.816404  9076 net.cpp:157] Top shape: 1 2 16 16 (512)
I0128 17:56:18.816404  9076 net.cpp:157] Top shape: 1 2 16 16 (512)
I0128 17:56:18.816404  9076 net.cpp:157] Top shape: 1 2 16 16 (512)
I0128 17:56:18.816404  9076 net.cpp:157] Top shape: 1 2 16 16 (512)
I0128 17:56:18.816404  9076 net.cpp:157] Top shape: 1 2 16 16 (512)
I0128 17:56:18.816404  9076 net.cpp:157] Top shape: 1 2 16 16 (512)
I0128 17:56:18.816404  9076 net.cpp:157] Top shape: 1 2 16 16 (512)
I0128 17:56:18.816404  9076 net.cpp:157] Top shape: 1 2 16 16 (512)
I0128 17:56:18.816404  9076 net.cpp:157] Top shape: 1 2 16 16 (512)
I0128 17:56:18.816404  9076 net.cpp:157] Top shape: 1 2 16 16 (512)
I0128 17:56:18.816404  9076 net.cpp:165] Memory required for data: 4724736
I0128 17:56:18.817405  9076 layer_factory.hpp:76] Creating layer scale2-layer6-slice1normalized
I0128 17:56:18.817405  9076 net.cpp:106] Creating Layer scale2-layer6-slice1normalized
I0128 17:56:18.817405  9076 net.cpp:454] scale2-layer6-slice1normalized <- scale2-layer6-slice1
I0128 17:56:18.817405  9076 net.cpp:411] scale2-layer6-slice1normalized -> scale2-layer6-slice1normalized
I0128 17:56:18.817405  9076 net.cpp:150] Setting up scale2-layer6-slice1normalized
I0128 17:56:18.817405  9076 net.cpp:157] Top shape: 1 2 16 16 (512)
I0128 17:56:18.817405  9076 net.cpp:165] Memory required for data: 4726784
I0128 17:56:18.817405  9076 layer_factory.hpp:76] Creating layer scale2-layer6-slice2normalized
I0128 17:56:18.817405  9076 net.cpp:106] Creating Layer scale2-layer6-slice2normalized
I0128 17:56:18.817405  9076 net.cpp:454] scale2-layer6-slice2normalized <- scale2-layer6-slice2
I0128 17:56:18.817405  9076 net.cpp:411] scale2-layer6-slice2normalized -> scale2-layer6-slice2normalized
I0128 17:56:18.817405  9076 net.cpp:150] Setting up scale2-layer6-slice2normalized
I0128 17:56:18.817405  9076 net.cpp:157] Top shape: 1 2 16 16 (512)
I0128 17:56:18.817405  9076 net.cpp:165] Memory required for data: 4728832
I0128 17:56:18.817405  9076 layer_factory.hpp:76] Creating layer scale2-layer6-slice3normalized
I0128 17:56:18.817405  9076 net.cpp:106] Creating Layer scale2-layer6-slice3normalized
I0128 17:56:18.817405  9076 net.cpp:454] scale2-layer6-slice3normalized <- scale2-layer6-slice3
I0128 17:56:18.817405  9076 net.cpp:411] scale2-layer6-slice3normalized -> scale2-layer6-slice3normalized
I0128 17:56:18.817405  9076 net.cpp:150] Setting up scale2-layer6-slice3normalized
I0128 17:56:18.817405  9076 net.cpp:157] Top shape: 1 2 16 16 (512)
I0128 17:56:18.817405  9076 net.cpp:165] Memory required for data: 4730880
I0128 17:56:18.817405  9076 layer_factory.hpp:76] Creating layer scale2-layer6-slice4normalized
I0128 17:56:18.817405  9076 net.cpp:106] Creating Layer scale2-layer6-slice4normalized
I0128 17:56:18.817405  9076 net.cpp:454] scale2-layer6-slice4normalized <- scale2-layer6-slice4
I0128 17:56:18.817405  9076 net.cpp:411] scale2-layer6-slice4normalized -> scale2-layer6-slice4normalized
I0128 17:56:18.817405  9076 net.cpp:150] Setting up scale2-layer6-slice4normalized
I0128 17:56:18.817405  9076 net.cpp:157] Top shape: 1 2 16 16 (512)
I0128 17:56:18.817405  9076 net.cpp:165] Memory required for data: 4732928
I0128 17:56:18.817405  9076 layer_factory.hpp:76] Creating layer scale2-layer6-slice5normalized
I0128 17:56:18.817405  9076 net.cpp:106] Creating Layer scale2-layer6-slice5normalized
I0128 17:56:18.817405  9076 net.cpp:454] scale2-layer6-slice5normalized <- scale2-layer6-slice5
I0128 17:56:18.817405  9076 net.cpp:411] scale2-layer6-slice5normalized -> scale2-layer6-slice5normalized
I0128 17:56:18.817405  9076 net.cpp:150] Setting up scale2-layer6-slice5normalized
I0128 17:56:18.817405  9076 net.cpp:157] Top shape: 1 2 16 16 (512)
I0128 17:56:18.817405  9076 net.cpp:165] Memory required for data: 4734976
I0128 17:56:18.817405  9076 layer_factory.hpp:76] Creating layer scale2-layer6-slice6normalized
I0128 17:56:18.817405  9076 net.cpp:106] Creating Layer scale2-layer6-slice6normalized
I0128 17:56:18.817405  9076 net.cpp:454] scale2-layer6-slice6normalized <- scale2-layer6-slice6
I0128 17:56:18.817405  9076 net.cpp:411] scale2-layer6-slice6normalized -> scale2-layer6-slice6normalized
I0128 17:56:18.817405  9076 net.cpp:150] Setting up scale2-layer6-slice6normalized
I0128 17:56:18.817405  9076 net.cpp:157] Top shape: 1 2 16 16 (512)
I0128 17:56:18.817405  9076 net.cpp:165] Memory required for data: 4737024
I0128 17:56:18.817405  9076 layer_factory.hpp:76] Creating layer scale2-layer6-slice7normalized
I0128 17:56:18.817405  9076 net.cpp:106] Creating Layer scale2-layer6-slice7normalized
I0128 17:56:18.817405  9076 net.cpp:454] scale2-layer6-slice7normalized <- scale2-layer6-slice7
I0128 17:56:18.817405  9076 net.cpp:411] scale2-layer6-slice7normalized -> scale2-layer6-slice7normalized
I0128 17:56:18.817405  9076 net.cpp:150] Setting up scale2-layer6-slice7normalized
I0128 17:56:18.817405  9076 net.cpp:157] Top shape: 1 2 16 16 (512)
I0128 17:56:18.817405  9076 net.cpp:165] Memory required for data: 4739072
I0128 17:56:18.817405  9076 layer_factory.hpp:76] Creating layer scale2-layer6-slice8normalized
I0128 17:56:18.817405  9076 net.cpp:106] Creating Layer scale2-layer6-slice8normalized
I0128 17:56:18.817405  9076 net.cpp:454] scale2-layer6-slice8normalized <- scale2-layer6-slice8
I0128 17:56:18.817405  9076 net.cpp:411] scale2-layer6-slice8normalized -> scale2-layer6-slice8normalized
I0128 17:56:18.817405  9076 net.cpp:150] Setting up scale2-layer6-slice8normalized
I0128 17:56:18.817405  9076 net.cpp:157] Top shape: 1 2 16 16 (512)
I0128 17:56:18.817405  9076 net.cpp:165] Memory required for data: 4741120
I0128 17:56:18.817405  9076 layer_factory.hpp:76] Creating layer scale2-layer6-slice9normalized
I0128 17:56:18.817405  9076 net.cpp:106] Creating Layer scale2-layer6-slice9normalized
I0128 17:56:18.817405  9076 net.cpp:454] scale2-layer6-slice9normalized <- scale2-layer6-slice9
I0128 17:56:18.817405  9076 net.cpp:411] scale2-layer6-slice9normalized -> scale2-layer6-slice9normalized
I0128 17:56:18.817405  9076 net.cpp:150] Setting up scale2-layer6-slice9normalized
I0128 17:56:18.817405  9076 net.cpp:157] Top shape: 1 2 16 16 (512)
I0128 17:56:18.817405  9076 net.cpp:165] Memory required for data: 4743168
I0128 17:56:18.817405  9076 layer_factory.hpp:76] Creating layer scale2-layer6-slice10normalized
I0128 17:56:18.817405  9076 net.cpp:106] Creating Layer scale2-layer6-slice10normalized
I0128 17:56:18.817405  9076 net.cpp:454] scale2-layer6-slice10normalized <- scale2-layer6-slice10
I0128 17:56:18.817405  9076 net.cpp:411] scale2-layer6-slice10normalized -> scale2-layer6-slice10normalized
I0128 17:56:18.817405  9076 net.cpp:150] Setting up scale2-layer6-slice10normalized
I0128 17:56:18.817405  9076 net.cpp:157] Top shape: 1 2 16 16 (512)
I0128 17:56:18.817405  9076 net.cpp:165] Memory required for data: 4745216
I0128 17:56:18.817405  9076 layer_factory.hpp:76] Creating layer scale2-layer6-slice11normalized
I0128 17:56:18.817405  9076 net.cpp:106] Creating Layer scale2-layer6-slice11normalized
I0128 17:56:18.817405  9076 net.cpp:454] scale2-layer6-slice11normalized <- scale2-layer6-slice11
I0128 17:56:18.817405  9076 net.cpp:411] scale2-layer6-slice11normalized -> scale2-layer6-slice11normalized
I0128 17:56:18.817405  9076 net.cpp:150] Setting up scale2-layer6-slice11normalized
I0128 17:56:18.817405  9076 net.cpp:157] Top shape: 1 2 16 16 (512)
I0128 17:56:18.817405  9076 net.cpp:165] Memory required for data: 4747264
I0128 17:56:18.817405  9076 layer_factory.hpp:76] Creating layer scale2-layer6-slice12normalized
I0128 17:56:18.817405  9076 net.cpp:106] Creating Layer scale2-layer6-slice12normalized
I0128 17:56:18.817405  9076 net.cpp:454] scale2-layer6-slice12normalized <- scale2-layer6-slice12
I0128 17:56:18.817405  9076 net.cpp:411] scale2-layer6-slice12normalized -> scale2-layer6-slice12normalized
I0128 17:56:18.817405  9076 net.cpp:150] Setting up scale2-layer6-slice12normalized
I0128 17:56:18.817405  9076 net.cpp:157] Top shape: 1 2 16 16 (512)
I0128 17:56:18.817405  9076 net.cpp:165] Memory required for data: 4749312
I0128 17:56:18.817405  9076 layer_factory.hpp:76] Creating layer scale2-layer6
I0128 17:56:18.817405  9076 net.cpp:106] Creating Layer scale2-layer6
I0128 17:56:18.817405  9076 net.cpp:454] scale2-layer6 <- scale2-layer6-slice1normalized
I0128 17:56:18.817405  9076 net.cpp:454] scale2-layer6 <- scale2-layer6-slice2normalized
I0128 17:56:18.817405  9076 net.cpp:454] scale2-layer6 <- scale2-layer6-slice3normalized
I0128 17:56:18.817405  9076 net.cpp:454] scale2-layer6 <- scale2-layer6-slice4normalized
I0128 17:56:18.817405  9076 net.cpp:454] scale2-layer6 <- scale2-layer6-slice5normalized
I0128 17:56:18.817405  9076 net.cpp:454] scale2-layer6 <- scale2-layer6-slice6normalized
I0128 17:56:18.817405  9076 net.cpp:454] scale2-layer6 <- scale2-layer6-slice7normalized
I0128 17:56:18.817405  9076 net.cpp:454] scale2-layer6 <- scale2-layer6-slice8normalized
I0128 17:56:18.817405  9076 net.cpp:454] scale2-layer6 <- scale2-layer6-slice9normalized
I0128 17:56:18.817405  9076 net.cpp:454] scale2-layer6 <- scale2-layer6-slice10normalized
I0128 17:56:18.818405  9076 net.cpp:454] scale2-layer6 <- scale2-layer6-slice11normalized
I0128 17:56:18.818405  9076 net.cpp:454] scale2-layer6 <- scale2-layer6-slice12normalized
I0128 17:56:18.818405  9076 net.cpp:411] scale2-layer6 -> scale2-layer6
I0128 17:56:18.818405  9076 net.cpp:150] Setting up scale2-layer6
I0128 17:56:18.818405  9076 net.cpp:157] Top shape: 1 24 16 16 (6144)
I0128 17:56:18.818405  9076 net.cpp:165] Memory required for data: 4773888
I0128 17:56:18.818405  9076 layer_factory.hpp:76] Creating layer scale2-layer7
I0128 17:56:18.818405  9076 net.cpp:106] Creating Layer scale2-layer7
I0128 17:56:18.818405  9076 net.cpp:454] scale2-layer7 <- scale2-layer6
I0128 17:56:18.818405  9076 net.cpp:411] scale2-layer7 -> scale2-layer7
I0128 17:56:18.820437  9076 cudnn_conv_layer.cpp:194] Reallocating workspace storage: 30144
I0128 17:56:18.820437  9076 net.cpp:150] Setting up scale2-layer7
I0128 17:56:18.820437  9076 net.cpp:157] Top shape: 1 24 16 16 (6144)
I0128 17:56:18.820437  9076 net.cpp:165] Memory required for data: 4798464
I0128 17:56:18.820437  9076 layer_factory.hpp:76] Creating layer scale2-layer8
I0128 17:56:18.820437  9076 net.cpp:106] Creating Layer scale2-layer8
I0128 17:56:18.820437  9076 net.cpp:454] scale2-layer8 <- scale2-layer7
I0128 17:56:18.820437  9076 net.cpp:411] scale2-layer8 -> scale2-layer8
I0128 17:56:18.820437  9076 net.cpp:150] Setting up scale2-layer8
I0128 17:56:18.820437  9076 net.cpp:157] Top shape: 1 24 64 64 (98304)
I0128 17:56:18.820437  9076 net.cpp:165] Memory required for data: 5191680
I0128 17:56:18.820437  9076 layer_factory.hpp:76] Creating layer scale3-layer1
I0128 17:56:18.820437  9076 net.cpp:106] Creating Layer scale3-layer1
I0128 17:56:18.820437  9076 net.cpp:454] scale3-layer1 <- data_input_0_split_2
I0128 17:56:18.820437  9076 net.cpp:411] scale3-layer1 -> scale3-layer1
I0128 17:56:18.820437  9076 cudnn_conv_layer.cpp:194] Reallocating workspace storage: 884808
I0128 17:56:18.820437  9076 net.cpp:150] Setting up scale3-layer1
I0128 17:56:18.820437  9076 net.cpp:157] Top shape: 1 3 128 128 (49152)
I0128 17:56:18.820437  9076 net.cpp:165] Memory required for data: 5388288
I0128 17:56:18.820437  9076 layer_factory.hpp:76] Creating layer scale3-layer2
I0128 17:56:18.820437  9076 net.cpp:106] Creating Layer scale3-layer2
I0128 17:56:18.820437  9076 net.cpp:454] scale3-layer2 <- scale3-layer1
I0128 17:56:18.820437  9076 net.cpp:411] scale3-layer2 -> scale3-layer2
I0128 17:56:18.820437  9076 cudnn_conv_layer.cpp:194] Reallocating workspace storage: 294936
I0128 17:56:18.820437  9076 net.cpp:150] Setting up scale3-layer2
I0128 17:56:18.820437  9076 net.cpp:157] Top shape: 1 3 128 128 (49152)
I0128 17:56:18.820437  9076 net.cpp:165] Memory required for data: 5584896
I0128 17:56:18.820437  9076 layer_factory.hpp:76] Creating layer scale3-layer3
I0128 17:56:18.820437  9076 net.cpp:106] Creating Layer scale3-layer3
I0128 17:56:18.820437  9076 net.cpp:454] scale3-layer3 <- scale3-layer2
I0128 17:56:18.820437  9076 net.cpp:411] scale3-layer3 -> scale3-layer3
I0128 17:56:18.820437  9076 cudnn_conv_layer.cpp:194] Reallocating workspace storage: 294936
I0128 17:56:18.820437  9076 net.cpp:150] Setting up scale3-layer3
I0128 17:56:18.820437  9076 net.cpp:157] Top shape: 1 24 128 128 (393216)
I0128 17:56:18.820437  9076 net.cpp:165] Memory required for data: 7157760
I0128 17:56:18.820437  9076 layer_factory.hpp:76] Creating layer scale3-layer4
I0128 17:56:18.820437  9076 net.cpp:106] Creating Layer scale3-layer4
I0128 17:56:18.820437  9076 net.cpp:454] scale3-layer4 <- scale3-layer3
I0128 17:56:18.820437  9076 net.cpp:411] scale3-layer4 -> scale3-layer4
I0128 17:56:18.820437  9076 net.cpp:150] Setting up scale3-layer4
I0128 17:56:18.820437  9076 net.cpp:157] Top shape: 1 24 128 128 (393216)
I0128 17:56:18.820437  9076 net.cpp:165] Memory required for data: 8730624
I0128 17:56:18.820437  9076 layer_factory.hpp:76] Creating layer scale3-layer5
I0128 17:56:18.820437  9076 net.cpp:106] Creating Layer scale3-layer5
I0128 17:56:18.820437  9076 net.cpp:454] scale3-layer5 <- scale3-layer4
I0128 17:56:18.820437  9076 net.cpp:411] scale3-layer5 -> scale3-layer5
I0128 17:56:18.820437  9076 net.cpp:150] Setting up scale3-layer5
I0128 17:56:18.820437  9076 net.cpp:157] Top shape: 1 24 32 32 (24576)
I0128 17:56:18.820437  9076 net.cpp:165] Memory required for data: 8828928
I0128 17:56:18.820437  9076 layer_factory.hpp:76] Creating layer scale3-layer6-slicer
I0128 17:56:18.820437  9076 net.cpp:106] Creating Layer scale3-layer6-slicer
I0128 17:56:18.820437  9076 net.cpp:454] scale3-layer6-slicer <- scale3-layer5
I0128 17:56:18.820437  9076 net.cpp:411] scale3-layer6-slicer -> scale3-layer6-slice1
I0128 17:56:18.820437  9076 net.cpp:411] scale3-layer6-slicer -> scale3-layer6-slice2
I0128 17:56:18.820437  9076 net.cpp:411] scale3-layer6-slicer -> scale3-layer6-slice3
I0128 17:56:18.820437  9076 net.cpp:411] scale3-layer6-slicer -> scale3-layer6-slice4
I0128 17:56:18.820437  9076 net.cpp:411] scale3-layer6-slicer -> scale3-layer6-slice5
I0128 17:56:18.820437  9076 net.cpp:411] scale3-layer6-slicer -> scale3-layer6-slice6
I0128 17:56:18.820437  9076 net.cpp:411] scale3-layer6-slicer -> scale3-layer6-slice7
I0128 17:56:18.820437  9076 net.cpp:411] scale3-layer6-slicer -> scale3-layer6-slice8
I0128 17:56:18.820437  9076 net.cpp:411] scale3-layer6-slicer -> scale3-layer6-slice9
I0128 17:56:18.820437  9076 net.cpp:411] scale3-layer6-slicer -> scale3-layer6-slice10
I0128 17:56:18.820437  9076 net.cpp:411] scale3-layer6-slicer -> scale3-layer6-slice11
I0128 17:56:18.820437  9076 net.cpp:411] scale3-layer6-slicer -> scale3-layer6-slice12
I0128 17:56:18.820437  9076 net.cpp:150] Setting up scale3-layer6-slicer
I0128 17:56:18.820437  9076 net.cpp:157] Top shape: 1 2 32 32 (2048)
I0128 17:56:18.820437  9076 net.cpp:157] Top shape: 1 2 32 32 (2048)
I0128 17:56:18.820437  9076 net.cpp:157] Top shape: 1 2 32 32 (2048)
I0128 17:56:18.820437  9076 net.cpp:157] Top shape: 1 2 32 32 (2048)
I0128 17:56:18.820437  9076 net.cpp:157] Top shape: 1 2 32 32 (2048)
I0128 17:56:18.820437  9076 net.cpp:157] Top shape: 1 2 32 32 (2048)
I0128 17:56:18.820437  9076 net.cpp:157] Top shape: 1 2 32 32 (2048)
I0128 17:56:18.820437  9076 net.cpp:157] Top shape: 1 2 32 32 (2048)
I0128 17:56:18.820437  9076 net.cpp:157] Top shape: 1 2 32 32 (2048)
I0128 17:56:18.820437  9076 net.cpp:157] Top shape: 1 2 32 32 (2048)
I0128 17:56:18.820437  9076 net.cpp:157] Top shape: 1 2 32 32 (2048)
I0128 17:56:18.820437  9076 net.cpp:157] Top shape: 1 2 32 32 (2048)
I0128 17:56:18.820437  9076 net.cpp:165] Memory required for data: 8927232
I0128 17:56:18.820437  9076 layer_factory.hpp:76] Creating layer scale3-layer6-slice1normalized
I0128 17:56:18.820437  9076 net.cpp:106] Creating Layer scale3-layer6-slice1normalized
I0128 17:56:18.820437  9076 net.cpp:454] scale3-layer6-slice1normalized <- scale3-layer6-slice1
I0128 17:56:18.820437  9076 net.cpp:411] scale3-layer6-slice1normalized -> scale3-layer6-slice1normalized
I0128 17:56:18.820437  9076 net.cpp:150] Setting up scale3-layer6-slice1normalized
I0128 17:56:18.820437  9076 net.cpp:157] Top shape: 1 2 32 32 (2048)
I0128 17:56:18.820437  9076 net.cpp:165] Memory required for data: 8935424
I0128 17:56:18.820437  9076 layer_factory.hpp:76] Creating layer scale3-layer6-slice2normalized
I0128 17:56:18.820437  9076 net.cpp:106] Creating Layer scale3-layer6-slice2normalized
I0128 17:56:18.820437  9076 net.cpp:454] scale3-layer6-slice2normalized <- scale3-layer6-slice2
I0128 17:56:18.820437  9076 net.cpp:411] scale3-layer6-slice2normalized -> scale3-layer6-slice2normalized
I0128 17:56:18.820437  9076 net.cpp:150] Setting up scale3-layer6-slice2normalized
I0128 17:56:18.820437  9076 net.cpp:157] Top shape: 1 2 32 32 (2048)
I0128 17:56:18.820437  9076 net.cpp:165] Memory required for data: 8943616
I0128 17:56:18.820437  9076 layer_factory.hpp:76] Creating layer scale3-layer6-slice3normalized
I0128 17:56:18.820437  9076 net.cpp:106] Creating Layer scale3-layer6-slice3normalized
I0128 17:56:18.820437  9076 net.cpp:454] scale3-layer6-slice3normalized <- scale3-layer6-slice3
I0128 17:56:18.820437  9076 net.cpp:411] scale3-layer6-slice3normalized -> scale3-layer6-slice3normalized
I0128 17:56:18.820437  9076 net.cpp:150] Setting up scale3-layer6-slice3normalized
I0128 17:56:18.820437  9076 net.cpp:157] Top shape: 1 2 32 32 (2048)
I0128 17:56:18.820437  9076 net.cpp:165] Memory required for data: 8951808
I0128 17:56:18.820437  9076 layer_factory.hpp:76] Creating layer scale3-layer6-slice4normalized
I0128 17:56:18.820437  9076 net.cpp:106] Creating Layer scale3-layer6-slice4normalized
I0128 17:56:18.820437  9076 net.cpp:454] scale3-layer6-slice4normalized <- scale3-layer6-slice4
I0128 17:56:18.820437  9076 net.cpp:411] scale3-layer6-slice4normalized -> scale3-layer6-slice4normalized
I0128 17:56:18.820437  9076 net.cpp:150] Setting up scale3-layer6-slice4normalized
I0128 17:56:18.820437  9076 net.cpp:157] Top shape: 1 2 32 32 (2048)
I0128 17:56:18.820437  9076 net.cpp:165] Memory required for data: 8960000
I0128 17:56:18.820437  9076 layer_factory.hpp:76] Creating layer scale3-layer6-slice5normalized
I0128 17:56:18.820437  9076 net.cpp:106] Creating Layer scale3-layer6-slice5normalized
I0128 17:56:18.820437  9076 net.cpp:454] scale3-layer6-slice5normalized <- scale3-layer6-slice5
I0128 17:56:18.820437  9076 net.cpp:411] scale3-layer6-slice5normalized -> scale3-layer6-slice5normalized
I0128 17:56:18.820437  9076 net.cpp:150] Setting up scale3-layer6-slice5normalized
I0128 17:56:18.820437  9076 net.cpp:157] Top shape: 1 2 32 32 (2048)
I0128 17:56:18.820437  9076 net.cpp:165] Memory required for data: 8968192
I0128 17:56:18.820437  9076 layer_factory.hpp:76] Creating layer scale3-layer6-slice6normalized
I0128 17:56:18.820437  9076 net.cpp:106] Creating Layer scale3-layer6-slice6normalized
I0128 17:56:18.820437  9076 net.cpp:454] scale3-layer6-slice6normalized <- scale3-layer6-slice6
I0128 17:56:18.820437  9076 net.cpp:411] scale3-layer6-slice6normalized -> scale3-layer6-slice6normalized
I0128 17:56:18.820437  9076 net.cpp:150] Setting up scale3-layer6-slice6normalized
I0128 17:56:18.820437  9076 net.cpp:157] Top shape: 1 2 32 32 (2048)
I0128 17:56:18.820437  9076 net.cpp:165] Memory required for data: 8976384
I0128 17:56:18.820437  9076 layer_factory.hpp:76] Creating layer scale3-layer6-slice7normalized
I0128 17:56:18.820437  9076 net.cpp:106] Creating Layer scale3-layer6-slice7normalized
I0128 17:56:18.820437  9076 net.cpp:454] scale3-layer6-slice7normalized <- scale3-layer6-slice7
I0128 17:56:18.820437  9076 net.cpp:411] scale3-layer6-slice7normalized -> scale3-layer6-slice7normalized
I0128 17:56:18.820437  9076 net.cpp:150] Setting up scale3-layer6-slice7normalized
I0128 17:56:18.820437  9076 net.cpp:157] Top shape: 1 2 32 32 (2048)
I0128 17:56:18.820437  9076 net.cpp:165] Memory required for data: 8984576
I0128 17:56:18.820437  9076 layer_factory.hpp:76] Creating layer scale3-layer6-slice8normalized
I0128 17:56:18.820437  9076 net.cpp:106] Creating Layer scale3-layer6-slice8normalized
I0128 17:56:18.820437  9076 net.cpp:454] scale3-layer6-slice8normalized <- scale3-layer6-slice8
I0128 17:56:18.820437  9076 net.cpp:411] scale3-layer6-slice8normalized -> scale3-layer6-slice8normalized
I0128 17:56:18.820437  9076 net.cpp:150] Setting up scale3-layer6-slice8normalized
I0128 17:56:18.820437  9076 net.cpp:157] Top shape: 1 2 32 32 (2048)
I0128 17:56:18.820437  9076 net.cpp:165] Memory required for data: 8992768
I0128 17:56:18.820437  9076 layer_factory.hpp:76] Creating layer scale3-layer6-slice9normalized
I0128 17:56:18.820437  9076 net.cpp:106] Creating Layer scale3-layer6-slice9normalized
I0128 17:56:18.820437  9076 net.cpp:454] scale3-layer6-slice9normalized <- scale3-layer6-slice9
I0128 17:56:18.820437  9076 net.cpp:411] scale3-layer6-slice9normalized -> scale3-layer6-slice9normalized
I0128 17:56:18.820437  9076 net.cpp:150] Setting up scale3-layer6-slice9normalized
I0128 17:56:18.820437  9076 net.cpp:157] Top shape: 1 2 32 32 (2048)
I0128 17:56:18.820437  9076 net.cpp:165] Memory required for data: 9000960
I0128 17:56:18.820437  9076 layer_factory.hpp:76] Creating layer scale3-layer6-slice10normalized
I0128 17:56:18.820437  9076 net.cpp:106] Creating Layer scale3-layer6-slice10normalized
I0128 17:56:18.820437  9076 net.cpp:454] scale3-layer6-slice10normalized <- scale3-layer6-slice10
I0128 17:56:18.820437  9076 net.cpp:411] scale3-layer6-slice10normalized -> scale3-layer6-slice10normalized
I0128 17:56:18.820437  9076 net.cpp:150] Setting up scale3-layer6-slice10normalized
I0128 17:56:18.820437  9076 net.cpp:157] Top shape: 1 2 32 32 (2048)
I0128 17:56:18.820437  9076 net.cpp:165] Memory required for data: 9009152
I0128 17:56:18.820437  9076 layer_factory.hpp:76] Creating layer scale3-layer6-slice11normalized
I0128 17:56:18.820437  9076 net.cpp:106] Creating Layer scale3-layer6-slice11normalized
I0128 17:56:18.820437  9076 net.cpp:454] scale3-layer6-slice11normalized <- scale3-layer6-slice11
I0128 17:56:18.820437  9076 net.cpp:411] scale3-layer6-slice11normalized -> scale3-layer6-slice11normalized
I0128 17:56:18.820437  9076 net.cpp:150] Setting up scale3-layer6-slice11normalized
I0128 17:56:18.820437  9076 net.cpp:157] Top shape: 1 2 32 32 (2048)
I0128 17:56:18.820437  9076 net.cpp:165] Memory required for data: 9017344
I0128 17:56:18.820437  9076 layer_factory.hpp:76] Creating layer scale3-layer6-slice12normalized
I0128 17:56:18.820437  9076 net.cpp:106] Creating Layer scale3-layer6-slice12normalized
I0128 17:56:18.820437  9076 net.cpp:454] scale3-layer6-slice12normalized <- scale3-layer6-slice12
I0128 17:56:18.820437  9076 net.cpp:411] scale3-layer6-slice12normalized -> scale3-layer6-slice12normalized
I0128 17:56:18.820437  9076 net.cpp:150] Setting up scale3-layer6-slice12normalized
I0128 17:56:18.820437  9076 net.cpp:157] Top shape: 1 2 32 32 (2048)
I0128 17:56:18.820437  9076 net.cpp:165] Memory required for data: 9025536
I0128 17:56:18.820437  9076 layer_factory.hpp:76] Creating layer scale3-layer6
I0128 17:56:18.820437  9076 net.cpp:106] Creating Layer scale3-layer6
I0128 17:56:18.820437  9076 net.cpp:454] scale3-layer6 <- scale3-layer6-slice1normalized
I0128 17:56:18.820437  9076 net.cpp:454] scale3-layer6 <- scale3-layer6-slice2normalized
I0128 17:56:18.820437  9076 net.cpp:454] scale3-layer6 <- scale3-layer6-slice3normalized
I0128 17:56:18.820437  9076 net.cpp:454] scale3-layer6 <- scale3-layer6-slice4normalized
I0128 17:56:18.820437  9076 net.cpp:454] scale3-layer6 <- scale3-layer6-slice5normalized
I0128 17:56:18.820437  9076 net.cpp:454] scale3-layer6 <- scale3-layer6-slice6normalized
I0128 17:56:18.820437  9076 net.cpp:454] scale3-layer6 <- scale3-layer6-slice7normalized
I0128 17:56:18.820437  9076 net.cpp:454] scale3-layer6 <- scale3-layer6-slice8normalized
I0128 17:56:18.820437  9076 net.cpp:454] scale3-layer6 <- scale3-layer6-slice9normalized
I0128 17:56:18.820437  9076 net.cpp:454] scale3-layer6 <- scale3-layer6-slice10normalized
I0128 17:56:18.820437  9076 net.cpp:454] scale3-layer6 <- scale3-layer6-slice11normalized
I0128 17:56:18.820437  9076 net.cpp:454] scale3-layer6 <- scale3-layer6-slice12normalized
I0128 17:56:18.820437  9076 net.cpp:411] scale3-layer6 -> scale3-layer6
I0128 17:56:18.820437  9076 net.cpp:150] Setting up scale3-layer6
I0128 17:56:18.820437  9076 net.cpp:157] Top shape: 1 24 32 32 (24576)
I0128 17:56:18.820437  9076 net.cpp:165] Memory required for data: 9123840
I0128 17:56:18.820437  9076 layer_factory.hpp:76] Creating layer scale3-layer7
I0128 17:56:18.820437  9076 net.cpp:106] Creating Layer scale3-layer7
I0128 17:56:18.820437  9076 net.cpp:454] scale3-layer7 <- scale3-layer6
I0128 17:56:18.820437  9076 net.cpp:411] scale3-layer7 -> scale3-layer7
I0128 17:56:18.836383  9076 cudnn_conv_layer.cpp:194] Reallocating workspace storage: 53760
I0128 17:56:18.836383  9076 net.cpp:150] Setting up scale3-layer7
I0128 17:56:18.836383  9076 net.cpp:157] Top shape: 1 24 32 32 (24576)
I0128 17:56:18.836383  9076 net.cpp:165] Memory required for data: 9222144
I0128 17:56:18.836383  9076 layer_factory.hpp:76] Creating layer scale3-layer8
I0128 17:56:18.836383  9076 net.cpp:106] Creating Layer scale3-layer8
I0128 17:56:18.837385  9076 net.cpp:454] scale3-layer8 <- scale3-layer7
I0128 17:56:18.837385  9076 net.cpp:411] scale3-layer8 -> scale3-layer8
I0128 17:56:18.837385  9076 net.cpp:150] Setting up scale3-layer8
I0128 17:56:18.837385  9076 net.cpp:157] Top shape: 1 24 64 64 (98304)
I0128 17:56:18.837385  9076 net.cpp:165] Memory required for data: 9615360
I0128 17:56:18.837385  9076 layer_factory.hpp:76] Creating layer scale4-layer1
I0128 17:56:18.837385  9076 net.cpp:106] Creating Layer scale4-layer1
I0128 17:56:18.837385  9076 net.cpp:454] scale4-layer1 <- data_input_0_split_3
I0128 17:56:18.837385  9076 net.cpp:411] scale4-layer1 -> scale4-layer1
I0128 17:56:18.847394  9076 cudnn_conv_layer.cpp:194] Reallocating workspace storage: 3558600
I0128 17:56:18.848395  9076 net.cpp:150] Setting up scale4-layer1
I0128 17:56:18.848395  9076 net.cpp:157] Top shape: 1 3 256 256 (196608)
I0128 17:56:18.848395  9076 net.cpp:165] Memory required for data: 10401792
I0128 17:56:18.848395  9076 layer_factory.hpp:76] Creating layer scale4-layer2
I0128 17:56:18.848395  9076 net.cpp:106] Creating Layer scale4-layer2
I0128 17:56:18.848395  9076 net.cpp:454] scale4-layer2 <- scale4-layer1
I0128 17:56:18.848395  9076 net.cpp:411] scale4-layer2 -> scale4-layer2
I0128 17:56:18.850396  9076 cudnn_conv_layer.cpp:194] Reallocating workspace storage: 1179672
I0128 17:56:18.851397  9076 net.cpp:150] Setting up scale4-layer2
I0128 17:56:18.851397  9076 net.cpp:157] Top shape: 1 3 256 256 (196608)
I0128 17:56:18.851397  9076 net.cpp:165] Memory required for data: 11188224
I0128 17:56:18.851397  9076 layer_factory.hpp:76] Creating layer scale4-layer3
I0128 17:56:18.851397  9076 net.cpp:106] Creating Layer scale4-layer3
I0128 17:56:18.851397  9076 net.cpp:454] scale4-layer3 <- scale4-layer2
I0128 17:56:18.851397  9076 net.cpp:411] scale4-layer3 -> scale4-layer3
I0128 17:56:18.853899  9076 cudnn_conv_layer.cpp:194] Reallocating workspace storage: 1179672
I0128 17:56:18.854900  9076 net.cpp:150] Setting up scale4-layer3
I0128 17:56:18.854900  9076 net.cpp:157] Top shape: 1 24 256 256 (1572864)
I0128 17:56:18.854900  9076 net.cpp:165] Memory required for data: 17479680
I0128 17:56:18.854900  9076 layer_factory.hpp:76] Creating layer scale4-layer4
I0128 17:56:18.854900  9076 net.cpp:106] Creating Layer scale4-layer4
I0128 17:56:18.854900  9076 net.cpp:454] scale4-layer4 <- scale4-layer3
I0128 17:56:18.854900  9076 net.cpp:411] scale4-layer4 -> scale4-layer4
I0128 17:56:18.854900  9076 net.cpp:150] Setting up scale4-layer4
I0128 17:56:18.854900  9076 net.cpp:157] Top shape: 1 24 256 256 (1572864)
I0128 17:56:18.854900  9076 net.cpp:165] Memory required for data: 23771136
I0128 17:56:18.854900  9076 layer_factory.hpp:76] Creating layer scale4-layer5
I0128 17:56:18.854900  9076 net.cpp:106] Creating Layer scale4-layer5
I0128 17:56:18.854900  9076 net.cpp:454] scale4-layer5 <- scale4-layer4
I0128 17:56:18.854900  9076 net.cpp:411] scale4-layer5 -> scale4-layer5
I0128 17:56:18.855901  9076 net.cpp:150] Setting up scale4-layer5
I0128 17:56:18.855901  9076 net.cpp:157] Top shape: 1 24 64 64 (98304)
I0128 17:56:18.855901  9076 net.cpp:165] Memory required for data: 24164352
I0128 17:56:18.855901  9076 layer_factory.hpp:76] Creating layer scale4-layer6-slicer
I0128 17:56:18.855901  9076 net.cpp:106] Creating Layer scale4-layer6-slicer
I0128 17:56:18.855901  9076 net.cpp:454] scale4-layer6-slicer <- scale4-layer5
I0128 17:56:18.855901  9076 net.cpp:411] scale4-layer6-slicer -> scale4-layer6-slice1
I0128 17:56:18.855901  9076 net.cpp:411] scale4-layer6-slicer -> scale4-layer6-slice2
I0128 17:56:18.855901  9076 net.cpp:411] scale4-layer6-slicer -> scale4-layer6-slice3
I0128 17:56:18.855901  9076 net.cpp:411] scale4-layer6-slicer -> scale4-layer6-slice4
I0128 17:56:18.855901  9076 net.cpp:411] scale4-layer6-slicer -> scale4-layer6-slice5
I0128 17:56:18.855901  9076 net.cpp:411] scale4-layer6-slicer -> scale4-layer6-slice6
I0128 17:56:18.855901  9076 net.cpp:411] scale4-layer6-slicer -> scale4-layer6-slice7
I0128 17:56:18.855901  9076 net.cpp:411] scale4-layer6-slicer -> scale4-layer6-slice8
I0128 17:56:18.855901  9076 net.cpp:411] scale4-layer6-slicer -> scale4-layer6-slice9
I0128 17:56:18.855901  9076 net.cpp:411] scale4-layer6-slicer -> scale4-layer6-slice10
I0128 17:56:18.855901  9076 net.cpp:411] scale4-layer6-slicer -> scale4-layer6-slice11
I0128 17:56:18.855901  9076 net.cpp:411] scale4-layer6-slicer -> scale4-layer6-slice12
I0128 17:56:18.855901  9076 net.cpp:150] Setting up scale4-layer6-slicer
I0128 17:56:18.855901  9076 net.cpp:157] Top shape: 1 2 64 64 (8192)
I0128 17:56:18.855901  9076 net.cpp:157] Top shape: 1 2 64 64 (8192)
I0128 17:56:18.855901  9076 net.cpp:157] Top shape: 1 2 64 64 (8192)
I0128 17:56:18.855901  9076 net.cpp:157] Top shape: 1 2 64 64 (8192)
I0128 17:56:18.856400  9076 net.cpp:157] Top shape: 1 2 64 64 (8192)
I0128 17:56:18.856400  9076 net.cpp:157] Top shape: 1 2 64 64 (8192)
I0128 17:56:18.856400  9076 net.cpp:157] Top shape: 1 2 64 64 (8192)
I0128 17:56:18.856400  9076 net.cpp:157] Top shape: 1 2 64 64 (8192)
I0128 17:56:18.856400  9076 net.cpp:157] Top shape: 1 2 64 64 (8192)
I0128 17:56:18.856400  9076 net.cpp:157] Top shape: 1 2 64 64 (8192)
I0128 17:56:18.856400  9076 net.cpp:157] Top shape: 1 2 64 64 (8192)
I0128 17:56:18.856400  9076 net.cpp:157] Top shape: 1 2 64 64 (8192)
I0128 17:56:18.856400  9076 net.cpp:165] Memory required for data: 24557568
I0128 17:56:18.856400  9076 layer_factory.hpp:76] Creating layer scale4-layer6-slice1normalized
I0128 17:56:18.856400  9076 net.cpp:106] Creating Layer scale4-layer6-slice1normalized
I0128 17:56:18.856400  9076 net.cpp:454] scale4-layer6-slice1normalized <- scale4-layer6-slice1
I0128 17:56:18.856400  9076 net.cpp:411] scale4-layer6-slice1normalized -> scale4-layer6-slice1normalized
I0128 17:56:18.856400  9076 net.cpp:150] Setting up scale4-layer6-slice1normalized
I0128 17:56:18.856400  9076 net.cpp:157] Top shape: 1 2 64 64 (8192)
I0128 17:56:18.856400  9076 net.cpp:165] Memory required for data: 24590336
I0128 17:56:18.856400  9076 layer_factory.hpp:76] Creating layer scale4-layer6-slice2normalized
I0128 17:56:18.856400  9076 net.cpp:106] Creating Layer scale4-layer6-slice2normalized
I0128 17:56:18.856400  9076 net.cpp:454] scale4-layer6-slice2normalized <- scale4-layer6-slice2
I0128 17:56:18.856400  9076 net.cpp:411] scale4-layer6-slice2normalized -> scale4-layer6-slice2normalized
I0128 17:56:18.856400  9076 net.cpp:150] Setting up scale4-layer6-slice2normalized
I0128 17:56:18.856400  9076 net.cpp:157] Top shape: 1 2 64 64 (8192)
I0128 17:56:18.856400  9076 net.cpp:165] Memory required for data: 24623104
I0128 17:56:18.856400  9076 layer_factory.hpp:76] Creating layer scale4-layer6-slice3normalized
I0128 17:56:18.856400  9076 net.cpp:106] Creating Layer scale4-layer6-slice3normalized
I0128 17:56:18.856400  9076 net.cpp:454] scale4-layer6-slice3normalized <- scale4-layer6-slice3
I0128 17:56:18.856400  9076 net.cpp:411] scale4-layer6-slice3normalized -> scale4-layer6-slice3normalized
I0128 17:56:18.856400  9076 net.cpp:150] Setting up scale4-layer6-slice3normalized
I0128 17:56:18.856400  9076 net.cpp:157] Top shape: 1 2 64 64 (8192)
I0128 17:56:18.856400  9076 net.cpp:165] Memory required for data: 24655872
I0128 17:56:18.856400  9076 layer_factory.hpp:76] Creating layer scale4-layer6-slice4normalized
I0128 17:56:18.856400  9076 net.cpp:106] Creating Layer scale4-layer6-slice4normalized
I0128 17:56:18.856400  9076 net.cpp:454] scale4-layer6-slice4normalized <- scale4-layer6-slice4
I0128 17:56:18.856400  9076 net.cpp:411] scale4-layer6-slice4normalized -> scale4-layer6-slice4normalized
I0128 17:56:18.856400  9076 net.cpp:150] Setting up scale4-layer6-slice4normalized
I0128 17:56:18.856400  9076 net.cpp:157] Top shape: 1 2 64 64 (8192)
I0128 17:56:18.856400  9076 net.cpp:165] Memory required for data: 24688640
I0128 17:56:18.856400  9076 layer_factory.hpp:76] Creating layer scale4-layer6-slice5normalized
I0128 17:56:18.856400  9076 net.cpp:106] Creating Layer scale4-layer6-slice5normalized
I0128 17:56:18.856400  9076 net.cpp:454] scale4-layer6-slice5normalized <- scale4-layer6-slice5
I0128 17:56:18.856400  9076 net.cpp:411] scale4-layer6-slice5normalized -> scale4-layer6-slice5normalized
I0128 17:56:18.856901  9076 net.cpp:150] Setting up scale4-layer6-slice5normalized
I0128 17:56:18.856901  9076 net.cpp:157] Top shape: 1 2 64 64 (8192)
I0128 17:56:18.856901  9076 net.cpp:165] Memory required for data: 24721408
I0128 17:56:18.856901  9076 layer_factory.hpp:76] Creating layer scale4-layer6-slice6normalized
I0128 17:56:18.856901  9076 net.cpp:106] Creating Layer scale4-layer6-slice6normalized
I0128 17:56:18.856901  9076 net.cpp:454] scale4-layer6-slice6normalized <- scale4-layer6-slice6
I0128 17:56:18.856901  9076 net.cpp:411] scale4-layer6-slice6normalized -> scale4-layer6-slice6normalized
I0128 17:56:18.856901  9076 net.cpp:150] Setting up scale4-layer6-slice6normalized
I0128 17:56:18.856901  9076 net.cpp:157] Top shape: 1 2 64 64 (8192)
I0128 17:56:18.856901  9076 net.cpp:165] Memory required for data: 24754176
I0128 17:56:18.856901  9076 layer_factory.hpp:76] Creating layer scale4-layer6-slice7normalized
I0128 17:56:18.856901  9076 net.cpp:106] Creating Layer scale4-layer6-slice7normalized
I0128 17:56:18.856901  9076 net.cpp:454] scale4-layer6-slice7normalized <- scale4-layer6-slice7
I0128 17:56:18.856901  9076 net.cpp:411] scale4-layer6-slice7normalized -> scale4-layer6-slice7normalized
I0128 17:56:18.856901  9076 net.cpp:150] Setting up scale4-layer6-slice7normalized
I0128 17:56:18.856901  9076 net.cpp:157] Top shape: 1 2 64 64 (8192)
I0128 17:56:18.856901  9076 net.cpp:165] Memory required for data: 24786944
I0128 17:56:18.856901  9076 layer_factory.hpp:76] Creating layer scale4-layer6-slice8normalized
I0128 17:56:18.856901  9076 net.cpp:106] Creating Layer scale4-layer6-slice8normalized
I0128 17:56:18.856901  9076 net.cpp:454] scale4-layer6-slice8normalized <- scale4-layer6-slice8
I0128 17:56:18.856901  9076 net.cpp:411] scale4-layer6-slice8normalized -> scale4-layer6-slice8normalized
I0128 17:56:18.856901  9076 net.cpp:150] Setting up scale4-layer6-slice8normalized
I0128 17:56:18.856901  9076 net.cpp:157] Top shape: 1 2 64 64 (8192)
I0128 17:56:18.856901  9076 net.cpp:165] Memory required for data: 24819712
I0128 17:56:18.856901  9076 layer_factory.hpp:76] Creating layer scale4-layer6-slice9normalized
I0128 17:56:18.856901  9076 net.cpp:106] Creating Layer scale4-layer6-slice9normalized
I0128 17:56:18.856901  9076 net.cpp:454] scale4-layer6-slice9normalized <- scale4-layer6-slice9
I0128 17:56:18.856901  9076 net.cpp:411] scale4-layer6-slice9normalized -> scale4-layer6-slice9normalized
I0128 17:56:18.856901  9076 net.cpp:150] Setting up scale4-layer6-slice9normalized
I0128 17:56:18.856901  9076 net.cpp:157] Top shape: 1 2 64 64 (8192)
I0128 17:56:18.856901  9076 net.cpp:165] Memory required for data: 24852480
I0128 17:56:18.856901  9076 layer_factory.hpp:76] Creating layer scale4-layer6-slice10normalized
I0128 17:56:18.856901  9076 net.cpp:106] Creating Layer scale4-layer6-slice10normalized
I0128 17:56:18.856901  9076 net.cpp:454] scale4-layer6-slice10normalized <- scale4-layer6-slice10
I0128 17:56:18.856901  9076 net.cpp:411] scale4-layer6-slice10normalized -> scale4-layer6-slice10normalized
I0128 17:56:18.856901  9076 net.cpp:150] Setting up scale4-layer6-slice10normalized
I0128 17:56:18.856901  9076 net.cpp:157] Top shape: 1 2 64 64 (8192)
I0128 17:56:18.856901  9076 net.cpp:165] Memory required for data: 24885248
I0128 17:56:18.856901  9076 layer_factory.hpp:76] Creating layer scale4-layer6-slice11normalized
I0128 17:56:18.856901  9076 net.cpp:106] Creating Layer scale4-layer6-slice11normalized
I0128 17:56:18.856901  9076 net.cpp:454] scale4-layer6-slice11normalized <- scale4-layer6-slice11
I0128 17:56:18.856901  9076 net.cpp:411] scale4-layer6-slice11normalized -> scale4-layer6-slice11normalized
I0128 17:56:18.856901  9076 net.cpp:150] Setting up scale4-layer6-slice11normalized
I0128 17:56:18.856901  9076 net.cpp:157] Top shape: 1 2 64 64 (8192)
I0128 17:56:18.856901  9076 net.cpp:165] Memory required for data: 24918016
I0128 17:56:18.856901  9076 layer_factory.hpp:76] Creating layer scale4-layer6-slice12normalized
I0128 17:56:18.857401  9076 net.cpp:106] Creating Layer scale4-layer6-slice12normalized
I0128 17:56:18.857401  9076 net.cpp:454] scale4-layer6-slice12normalized <- scale4-layer6-slice12
I0128 17:56:18.857401  9076 net.cpp:411] scale4-layer6-slice12normalized -> scale4-layer6-slice12normalized
I0128 17:56:18.857401  9076 net.cpp:150] Setting up scale4-layer6-slice12normalized
I0128 17:56:18.857401  9076 net.cpp:157] Top shape: 1 2 64 64 (8192)
I0128 17:56:18.857401  9076 net.cpp:165] Memory required for data: 24950784
I0128 17:56:18.857401  9076 layer_factory.hpp:76] Creating layer scale4-layer6
I0128 17:56:18.857401  9076 net.cpp:106] Creating Layer scale4-layer6
I0128 17:56:18.857401  9076 net.cpp:454] scale4-layer6 <- scale4-layer6-slice1normalized
I0128 17:56:18.857401  9076 net.cpp:454] scale4-layer6 <- scale4-layer6-slice2normalized
I0128 17:56:18.857401  9076 net.cpp:454] scale4-layer6 <- scale4-layer6-slice3normalized
I0128 17:56:18.857401  9076 net.cpp:454] scale4-layer6 <- scale4-layer6-slice4normalized
I0128 17:56:18.857401  9076 net.cpp:454] scale4-layer6 <- scale4-layer6-slice5normalized
I0128 17:56:18.857401  9076 net.cpp:454] scale4-layer6 <- scale4-layer6-slice6normalized
I0128 17:56:18.857401  9076 net.cpp:454] scale4-layer6 <- scale4-layer6-slice7normalized
I0128 17:56:18.857401  9076 net.cpp:454] scale4-layer6 <- scale4-layer6-slice8normalized
I0128 17:56:18.857401  9076 net.cpp:454] scale4-layer6 <- scale4-layer6-slice9normalized
I0128 17:56:18.857401  9076 net.cpp:454] scale4-layer6 <- scale4-layer6-slice10normalized
I0128 17:56:18.857401  9076 net.cpp:454] scale4-layer6 <- scale4-layer6-slice11normalized
I0128 17:56:18.857401  9076 net.cpp:454] scale4-layer6 <- scale4-layer6-slice12normalized
I0128 17:56:18.857401  9076 net.cpp:411] scale4-layer6 -> scale4-layer6
I0128 17:56:18.857401  9076 net.cpp:150] Setting up scale4-layer6
I0128 17:56:18.857401  9076 net.cpp:157] Top shape: 1 24 64 64 (98304)
I0128 17:56:18.857401  9076 net.cpp:165] Memory required for data: 25344000
I0128 17:56:18.857401  9076 layer_factory.hpp:76] Creating layer scale4-layer7
I0128 17:56:18.857401  9076 net.cpp:106] Creating Layer scale4-layer7
I0128 17:56:18.857401  9076 net.cpp:454] scale4-layer7 <- scale4-layer6
I0128 17:56:18.857401  9076 net.cpp:411] scale4-layer7 -> scale4-layer7
I0128 17:56:18.859904  9076 cudnn_conv_layer.cpp:194] Reallocating workspace storage: 100992
I0128 17:56:18.859904  9076 net.cpp:150] Setting up scale4-layer7
I0128 17:56:18.859904  9076 net.cpp:157] Top shape: 1 24 64 64 (98304)
I0128 17:56:18.859904  9076 net.cpp:165] Memory required for data: 25737216
I0128 17:56:18.859904  9076 layer_factory.hpp:76] Creating layer scale4-layer8
I0128 17:56:18.859904  9076 net.cpp:106] Creating Layer scale4-layer8
I0128 17:56:18.859904  9076 net.cpp:454] scale4-layer8 <- scale4-layer7
I0128 17:56:18.859904  9076 net.cpp:411] scale4-layer8 -> scale4-layer8
I0128 17:56:18.859904  9076 net.cpp:150] Setting up scale4-layer8
I0128 17:56:18.859904  9076 net.cpp:157] Top shape: 1 24 64 64 (98304)
I0128 17:56:18.859904  9076 net.cpp:165] Memory required for data: 26130432
I0128 17:56:18.859904  9076 layer_factory.hpp:76] Creating layer decoding-layer1
I0128 17:56:18.859904  9076 net.cpp:106] Creating Layer decoding-layer1
I0128 17:56:18.859904  9076 net.cpp:454] decoding-layer1 <- scale1-layer8
I0128 17:56:18.859904  9076 net.cpp:454] decoding-layer1 <- scale2-layer8
I0128 17:56:18.859904  9076 net.cpp:454] decoding-layer1 <- scale3-layer8
I0128 17:56:18.859904  9076 net.cpp:454] decoding-layer1 <- scale4-layer8
I0128 17:56:18.859904  9076 net.cpp:411] decoding-layer1 -> decoding-layer1
I0128 17:56:18.859904  9076 net.cpp:150] Setting up decoding-layer1
I0128 17:56:18.859904  9076 net.cpp:157] Top shape: 1 96 64 64 (393216)
I0128 17:56:18.859904  9076 net.cpp:165] Memory required for data: 27703296
I0128 17:56:18.859904  9076 layer_factory.hpp:76] Creating layer decoding-layer2
I0128 17:56:18.859904  9076 net.cpp:106] Creating Layer decoding-layer2
I0128 17:56:18.859904  9076 net.cpp:454] decoding-layer2 <- decoding-layer1
I0128 17:56:18.859904  9076 net.cpp:411] decoding-layer2 -> decoding-layer2
I0128 17:56:18.862934  9076 cudnn_conv_layer.cpp:194] Reallocating workspace storage: 80280
I0128 17:56:18.862934  9076 net.cpp:150] Setting up decoding-layer2
I0128 17:56:18.862934  9076 net.cpp:157] Top shape: 1 144 64 64 (589824)
I0128 17:56:18.862934  9076 net.cpp:165] Memory required for data: 30062592
I0128 17:56:18.862934  9076 layer_factory.hpp:76] Creating layer decoding-layer3
I0128 17:56:18.862934  9076 net.cpp:106] Creating Layer decoding-layer3
I0128 17:56:18.862934  9076 net.cpp:454] decoding-layer3 <- decoding-layer2
I0128 17:56:18.862934  9076 net.cpp:411] decoding-layer3 -> decoding-layer3
I0128 17:56:18.863935  9076 net.cpp:150] Setting up decoding-layer3
I0128 17:56:18.863935  9076 net.cpp:157] Top shape: 1 144 64 64 (589824)
I0128 17:56:18.863935  9076 net.cpp:165] Memory required for data: 32421888
I0128 17:56:18.863935  9076 layer_factory.hpp:76] Creating layer decoding-layer4
I0128 17:56:18.863935  9076 net.cpp:106] Creating Layer decoding-layer4
I0128 17:56:18.863935  9076 net.cpp:454] decoding-layer4 <- decoding-layer3
I0128 17:56:18.863935  9076 net.cpp:411] decoding-layer4 -> decoding-layer4
I0128 17:56:18.866937  9076 cudnn_conv_layer.cpp:194] Reallocating workspace storage: 80280
I0128 17:56:18.867938  9076 net.cpp:150] Setting up decoding-layer4
I0128 17:56:18.867938  9076 net.cpp:157] Top shape: 1 2 64 64 (8192)
I0128 17:56:18.867938  9076 net.cpp:165] Memory required for data: 32454656
I0128 17:56:18.867938  9076 net.cpp:228] decoding-layer4 does not need backward computation.
I0128 17:56:18.867938  9076 net.cpp:228] decoding-layer3 does not need backward computation.
I0128 17:56:18.867938  9076 net.cpp:228] decoding-layer2 does not need backward computation.
I0128 17:56:18.867938  9076 net.cpp:228] decoding-layer1 does not need backward computation.
…
